Reinforcement Learning and Optimal Control for Robotics (ROB-GY 6323)/Homework/Series 4/models/lipm_q_function.pth (torch, 38112 bytes, 8 tensors)

0.weight f4 [64, 2]
00000000: 83d1 f7be 909b a7bd f1c2 8ebe 16f4 6abe
00000010: ea2a 05bf cd70 ddbe 6bed 08bf 62b4 b6be
00000020: 8033 1ebf 65ca 72bd 790a b9be 0328 293e
00000030: 831e d7be 65cb 13be 9cf0 3abe 7c89 d73c
00000040: 6ff3 a6be 78d9 d7bd ea81 a1be d827 c6bd
00000050: fad5 91bc 9ef3 abbe efb0 1dbe b6c3 67be
00000060: c07c 803f bd97 b33e d10c ddbe b7af 3f3e
00000070: ccee f9be 768d 2bbe 7558 2fbf 8173 d3be
00000080: cd8d 00be 7eb3 38be fe9e 90be 4a18 cdbd
00000090: cb23 bbbe 8aaf 00be 4e1b f13e a4f1 c23e
000000a0: 30a8 73be d15c d23e a72f 6d3d 21d1 053f
000000b0: 3ed1 a0be 9044 a7be 367c 01bf 86b0 bb3d
000000c0: 486b eabe 6e43 0abe 01ef 23bf 2e68 9abe
000000d0: 4722 eebe 417f bdbe c18f 9dbe b938 debe
000000e0: a4f3 48bf 6d24 a33e 62db 92be f470 95bd
000000f0: c779 25bf 38e1 8f3e 53e6 dfbe 319a 0cbe
00000100: 1d38 84be 2134 6fbe 1ce9 19be b95a f43d
00000110: cc40 f8be ed20 a0be 3582 e63e 9a21 713e
00000120: 7892 1abe 2736 03bf 9e81 80be 1efc 9fbb
00000130: 60bc 0ebf ef17 013e 55b0 8abd da89 39be
00000140: 673d f1be 9df0 923e 7826 afbe 87e9 553e
00000150: 0818 75bf d421 cbbd 77a3 31bf ff3a 18bd
00000160: f29d c5be eac5 bc3a a0aa 85be 0b4a 1dbe
00000170: 69f4 e73e af8e bdbe 235e 22bf 5094 b43e
00000180: ecee edbd b50c c0bc c248 69be 3408 d3be
00000190: 9f90 30bf bbac 7abe f64a 8d3d 7486 3bbd
000001a0: ce76 0cbf dcce c63d 3833 45bf b40a 3abe
000001b0: c83c 99be 8a65 ccbe 7af8 74be 5f06 7bbe
000001c0: 0b6f 95be bd8a 02bf f864 a0be 0431 dbbd
000001d0: 9caa 83be 41d6 07be 0db8 35be 84c6 c8be
000001e0: 0af2 823f a6bf ea3e c249 7bbd 76f2 0b3f
000001f0: 6bdc e1be 43d6 b03e 4087 88be 69fe b83d
-0.48402032 -0.08183968 -0.27883103 -0.22944674 -0.52018607 -0.43250123 -0.5348727 -0.35684496
-0.6179733 -0.05927505 -0.36140803 0.1651917 -0.42015466 -0.14433058 -0.18255848 0.026310675
-0.326076 -0.10539526 -0.3154443 -0.09675568 -0.017802227 -0.33584303 -0.15399526 -0.22633252
1.0038071 0.35076705 -0.4317384 0.18719374 -0.48815 -0.16753182 -0.6849435 -0.4129906
-0.12554093 -0.18037221 -0.282463 -0.100143984 -0.36550745 -0.12566963 0.47091144 0.38074982
-0.23794627 0.41086438 0.057906773 0.5227223 -0.3140964 -0.32669497 -0.50580156 0.091645285
-0.45784974 -0.13502285 -0.64036566 -0.30157608 -0.46510527 -0.3701115 -0.30773738 -0.4340265
-0.78496766 0.31863728 -0.28683 -0.07296935 -0.6463894 0.28101516 -0.4373041 -0.13730694
-0.2582406 -0.2335973 -0.1503033 0.119313665 -0.48486936 -0.3127512 0.45021215 0.23547974
-0.15094936 -0.51254505 -0.2509889 -0.0048823496 -0.5575619 0.12606786 -0.06771914 -0.18118992
-0.4711716 0.28699198 -0.34209037 0.20889865 -0.95739794 -0.099185616 -0.6939005 -0.037165638
-0.38597065 0.0014402245 -0.2610674 -0.15360276 0.45303658 -0.3702292 -0.6342489 0.35269403
-0.11617836 -0.02344356 -0.22781661 -0.41217196 -0.68970674 -0.24479954 0.06899063 -0.04578252
-0.5486878 0.09707424 -0.7703128 -0.18168145 -0.29929185 -0.39921218 -0.23922911 -0.24514149
-0.29186282 -0.5099295 -0.31327033 -0.10702708 -0.25716102 -0.13265325 -0.17745991 -0.39213955
1.0230114 0.4584934 -0.061349638 0.5466684 -0.44113478 0.3453847 -0.26665688 0.090329

0.bias f4 [64]
00000000: 469a 9f3e c39f 8a3f d6bc 6abe ad73 39bf
00000010: e586 c93e 6b6d 03bf 3b74 a73f 159e 4ebe
00000020: c987 dabe 7d42 7d3f 1c96 6dbf 15fd d9be
00000030: b771 23c0 3e58 9dbe 7bff 403f 5baa c73f
00000040: 65a2 573f 044f 653f a446 923f 9011 c6bf
00000050: 6b83 36bf 053c 82bd 3c5d 0ebf 8974 9abe
00000060: e06a 753f 66fb 31bf 23a7 313e e4cb ad3e
00000070: 3425 e7be 6e02 713f 3c2d 6fbe c299 e23f
00000080: d52d 8abf 39c2 39bf 4314 0d3f dfd2 78bf
00000090: f03b 53bf 04ba bf3e 42df 1abf ffba 1d3e
000000a0: 5a13 28bf 5f4d 04bf de11 533f 9a2b d13e
000000b0: 0826 0ebc 4797 233d 2a60 9cbf cfad fcbe
000000c0: 87f3 3c3b 2d4c 9ebd 5124 24bf 4880 44bf
000000d0: 45a2 4e3f 92d8 bcbe 2310 01bd ce3b 27be
000000e0: b3ee 9abe 4927 7e3f 59ef fc3e 56df 68bf
000000f0: 1a51 20c0 70fe 9fbf 23db 92be 691e d13e
0.3117239 1.0830005 -0.22923598 -0.7244213 0.3936073 -0.51338834 1.3082346 -0.20177491
-0.4268172 0.9892958 -0.92807174 -0.425759 -2.5538156 -0.30731386 0.7538983 1.5598863
0.8423217 0.89573693 1.1427808 -1.547411 -0.7129428 -0.06359104 -0.55611014 -0.30167034
0.95866203 -0.6952423 0.17348914 0.3394462 -0.4514557 0.9414433 -0.233571 1.7703173
-1.0795237 -0.72561985 0.5510904 -0.97196764 -0.8251333 0.37446606 -0.60496914 0.15403365
-0.6565453 -0.5168056 0.8244914 0.40853578 -0.00867606 0.03993919 -1.2216847 -0.49351355
0.0028831677 -0.07729373 -0.64117914 -0.7675824 0.80716354 -0.3688398 -0.03150953 -0.16331407
-0.30260238 0.99278694 0.49401358 -0.90965784 -2.50495 -1.2499523 -0.28682813 0.40843514

2.weight f4 [64, 64]
00000000: d7f3 7abc 4ecd 09be 96f8 973c e814 1cbe
00000010: fcea f03d 1f5b 0bbd df32 233d 0cd9 30bd
00000020: 92d7 fdbd 3650 75bd 6112 f6bd 0fbd 41be
00000030: 0ff9 f4bd 781e 39bd c12e 64be 2805 703d
00000040: 0063 aebd 6536 89b9 064a 04be d13f f4bd
00000050: ca29 43be b63d c13c a28c fabc 89f8 dcbc
00000060: dbfc c3bb d00d 0abe bca8 23bd 31f0 253c
00000070: 470f c5bb 5c42 ba3d 8828 293d 1c8a 2e3d
00000080: 05d6 42be 8a26 bb3d fc4e 383c 0d75 98bd
00000090: 5008 81bd d9bc 31be af62 bcbc 94ee 753d
000000a0: cea0 99bb 51bb cfbd 793a 8d3d e591 2c3e
000000b0: c004 f23d 546b 89bd 6a59 36be c1dc 77bc
000000c0: f5e5 b0bd fb63 4dbe b543 913c f17b 07be
000000d0: 34d6 303e 0f71 38bc e669 10be 5c9f 763d
000000e0: 8fc7 acbc f861 7dbd 081b f3bd 600b 7cbe
000000f0: 58a9 58be 7193 e1bd c948 003e 06ab aebd
00000100: ec1c 25bd 1e11 b4bc baad e73d a8f5 a3bc
00000110: e74f 573d 582f f8bd a9f2 993a 5295 843d
00000120: 0049 073a f171 f0bd 8b79 693d 75b3 b43d
00000130: bb2d 193d d422 3a3d 7df6 0abd 874e 553a
00000140: 96ea c3bd 3449 e63d 4ed4 a7bb c038 a4bc
00000150: 7471 cbbd aad2 78bc a235 a53d d081 5d3d
00000160: 74a9 fabd f820 aabc 9ce9 8b3d fcab f6bd
00000170: 0c68 873d bead a13d a776 d0bd 0314 5dbd
00000180: 1849 8bbc c731 74bd 8033 a2bc e6c5 ceba
00000190: b0ac 643d a2a6 21bc e02a 3fbc 0848 873c
000001a0: 33eb 42bd c052 b5bd 6532 f9bd 74c8 c6bd
000001b0: ca34 80bd 0d6f 3fbb 3473 e7bd 80f7 003b
000001c0: 8a67 12bd e777 6cbc 40d8 16bb 5d93 debc
000001d0: 27e7 e6bc c8f6 d9bd 50aa bd3d 3076 8a3d
000001e0: d444 dabd 1fed f8bc 5fb2 503d ac79 92bd
000001f0: 8448 89bd 4821 d2bd d5ed 30bc ceb4 87bd
00000200: 6070 15bd fd27 43bd f43b 3f3d 504e e13d
00000210: ac59 f2bc b9e3 ce3d eb36 b2bb fc2c a0bd
00000220: 60d7 12bc 7068 01bd e496 aabd 795f b6bd
00000230: 9d3a b2bd 5c11 e63d 3763 0e3d 769a 5b3c
00000240: f1ba c4bb bc7a 3aba 62f4 95bd 593e 1c3c
00000250: 9ab7 1c3d 5afc 263d d6e5 efbd 4b37 e3bd
00000260: 647c 1e3d 00ec 6abd b05d e83c d833 e33c
00000270: c139 02be 6914 38bd 36c9 e43c 64ea b1bd
00000280: 415a 873d ae6b 823d 082b d63d b028 c9bd
00000290: 0053 e73c 803e 08be 3057 2a3d 0000 203a
000002a0: 200b ac3d 475a 893d 8a83 7d3d 0ad7 f2bc
000002b0: 58bc e33d fea7 a5bd 5555 b7bd 2cea 06bc
000002c0: 44ee a53c c651 8bbd 1e2b 953d 3493 0bbd
000002d0: af22 c2bd 803f c33d 8e9c 94bc 1e1b a5bd
000002e0: c0f8 31bd dfb8 823d 3055 c43c a396 17be
000002f0: 2c30 493c c376 bf3c 8f13 a2bd f58a c8bd
00000300: 3a42 f2bd 2661 a73a 4fbd b53d b0d5 d9bc
00000310: cdae e0bd 985d b8bc edb0 583d 261d fe3d
00000320: 8f38 823d ed57 403c e4a0 00bd 5d6f c5bc
00000330: efdf 3abd f8dc e9bd e770 34be fa1a 77bd
00000340: 5059 27be 51d3 59bc 222e 82be 059b 12bd
00000350: 8c01 523d d98c 33be c99f 0abd b48c 433d
00000360: e00d f7bd e802 a9bd 64dd 81bd e618 8e3c
00000370: e867 7fbd 3480 bc3d 809e b4bd 8e1a f63c
00000380: 40c5 c4bd d682 cc3d 8e3f 6a3d 9f2c 19be
00000390: 2cb8 f9bb b296 31bc 10e5 343c fb69 963d
000003a0: 207b 613d 1c8e f23d 4ea0 46bd 9e94 bdbd
000003b0: 968d b23d a09b 6c3d 5b17 dcbc a073 bc3b
000003c0: 6f94 d6bc 9ed0 05be 41a0 333c 0f1f cebd
000003d0: 17ce ddbd 4905 40bd 55fc babc c5ad 413d
000003e0: 3196 bc3c 8391 d9bd b552 05be 515c 423d
000003f0: 87b9 62bd 0529 04be 561b ddbd 7fb9 12be
-0.015316925 -0.13457224 0.018551152 -0.1524235 0.1176357 -0.034022447 0.039843436 -0.043175742
-0.123946324 -0.05989095 -0.12015224 -0.18919776 -0.11961567 -0.045195073 -0.2228346 0.058598667
-0.085149765 -0.00026171203 -0.12918863 -0.119262345 -0.1905891 0.023588996 -0.030584637 -0.02697398
-0.0059810705 -0.13481832 -0.03995584 0.010128067 -0.006013784 0.09094688 0.04129842 0.04261218
-0.19026954 0.0913821 0.0112493 -0.07444201 -0.063004136 -0.17357196 -0.022996275 0.06004198
-0.004688359 -0.1014315 0.068959184 0.1685253 0.11817312 -0.06709924 -0.17807546 -0.015128315
-0.08637611 -0.20057671 0.01773248 -0.13230874 0.17269212 -0.011257424 -0.14102897 0.06021057
-0.02109125 -0.06186101 -0.1187039 -0.24613714 -0.2115835 -0.1101445 0.12527765 -0.08528714
-0.040310785 -0.021980818 0.113124326 -0.020014599 0.052566435 -0.12118405 0.0011745292 0.06473793
0.0005160719 -0.117404826 0.057000678 0.08823291 0.037397128 0.04544337 -0.033926476 0.00081370067
-0.09566228 0.11244431 -0.0051217442 -0.020046592 -0.09933749 -0.015186945 0.0806687 0.054078877
-0.12239352 -0.020767674 0.06831667 -0.12044522 0.06611642 0.07894467 -0.10178881 -0.053974163
-0.017002627 -0.059617784 -0.019799948 -0.0015775531 0.05582875 -0.0098663885 -0.011667937 0.01651384
-0.047587585 -0.08853674 -0.12167815 -0.09706202 -0.06260069 -0.0029210479 -0.1130127 0.0019678771
-0.035743274 -0.014432884 -0.0023017079 -0.027169878 -0.028186394 -0.10642773 0.09261 0.06760824
-0.10657659 -0.030386506 0.050951358 -0.07152113 -0.067032844 -0.10260254 -0.010798891 -0.06626283
-0.036484122 -0.047645558 0.046688035 0.11001265 -0.029583775 0.101020284 -0.0054386756 -0.0782108
-0.008962482 -0.03159374 -0.08329561 -0.08904929 -0.08702586 0.1123378 0.034762587 0.013403526
-0.0060037305 -0.0007113626 -0.07322003 0.009536349 0.038261034 0.040768005 -0.117137596 -0.11094531
0.038692847 -0.057353973 0.028364986 0.027734682 -0.12717344 -0.04494134 0.027927976 -0.086872846
0.066090114 0.063681945 0.10457426 -0.09822214 0.02823782 -0.13305092 0.041587055 0.00061035156
0.084005594 0.06706672 0.061893024 -0.029643554 0.11119908 -0.080886826 -0.08951823 -0.008234542
0.020255215 -0.068027064 0.072836146 -0.03407593 -0.094792716 0.09533596 -0.018141057 -0.08061813
-0.043450117 0.063829176 0.023966402 -0.14803557 0.0122795515 0.02337206 -0.07913887 -0.09792129
-0.11829038 0.0012770041 0.088739984 -0.026591152 -0.109708406 -0.022505566 0.052903105 0.124079034
0.06358444 0.011739713 -0.031403437 -0.024100954 -0.045623716 -0.114190996 -0.17621194 -0.06032846
-0.16342664 -0.013295011 -0.25425822 -0.03579237 0.051271006 -0.17534198 -0.03384379 0.047741607
-0.12063193 -0.082525074 -0.06341055 0.017345857 -0.062354952 0.0920414 -0.08819294 0.03004196
-0.09607935 0.099858925 0.057189517 -0.14958428 -0.007620832 -0.010839151 0.011040941 0.07344433
0.05504906 0.118435115 -0.048492722 -0.09256862 0.087184116 0.057765603 -0.026866606 0.0057510883
-0.026193826 -0.13067862 0.0109635005 -0.10064518 -0.10830324 -0.04688004 -0.0228254 0.04728486
0.023020836 -0.10623457 -0.13019831 0.04745132 -0.055352714 -0.12906273 -0.107962295 -0.14328574

2.bias f4 [64]
00000000: 9be5 97bb e26b 173d a95f bdbd 2741 1d3e
00000010: dbd6 57bd 58d1 b0bd 4e5c bd3d 2859 593f
00000020: a21e 4b3f eda5 45bd 46fd 3e3f c9ab a0bd
00000030: 0927 f9bc cbf2 cabd eda7 bcbd 43b1 cf3d
00000040: 1e7f 1a3f 48cc d23e 2096 a5bd 98aa 55be
00000050: d4a2 50bd 59d5 04bd 37e5 41bf e8a9 0cbd
00000060: 3669 d9bd 81ee 19bc f6a8 ccbd 2389 00be
00000070: 449e e9bd efa9 d1bd adaa 7e3e dc47 c2bd
00000080: 588e 023c a656 8ebd d5b0 28be 0304 c83e
00000090: f121 b03d 0518 1fbe 0ac5 3d3e 4deb a9be
000000a0: 19a4 893c a9e3 fe3c 4e69 13bd cdfa 233f
000000b0: 5f71 323e 5dc9 1d3f 580f 7abd f631 363e
000000c0: c624 7bbd 27c5 fdbc 2cb3 ab3e ea35 8cbd
000000d0: fe8d 46bc 9bdb e6bd ae3c 32bd 39b2 02bd
000000e0: 042b b9bd 09c5 8ebe 836a 8dbd 0554 67bd
000000f0: 9e89 f5bd 9907 edbe ea6e 48bd b654 bbbd
-0.0046355254 0.03696812 -0.09246761 0.15356885 -0.052695137 -0.08633679 0.09246121 0.84901667
0.79343617 -0.048253942 0.74605215 -0.078452654 -0.030414121 -0.0990959 -0.09211717 0.10141232
0.60350215 0.4117148 -0.08085275 -0.20865858 -0.050936535 -0.032430027 -0.7574038 -0.034341723
-0.106157705 -0.009395243 -0.09993164 -0.12552314 -0.1140714 -0.102374904 0.24869795 -0.09486362
0.007968508 -0.06950121 -0.16473706 0.3906556 0.08600224 -0.15536506 0.18532196 -0.33187333
0.01680188 0.031114416 -0.0359891 0.64054567 0.1742606 0.6163538 -0.06104979 0.17792496
-0.061314367 -0.030977799 0.33535135 -0.06846221 -0.0121188145 -0.11272355 -0.0435149 -0.031908248
-0.09041408 -0.278847 -0.06905081 -0.05647661 -0.11989139 -0.4629486 -0.0489339 -0.09147017

4.weight f4 [64, 64]
00000000: e1bd 8fbd ccc6 c13d cb7c 763d c772 cb3c
00000010: 079f 83bd e887 cd3d 4fa5 f0bd 6190 32bd
00000020: d70d 19be c9ad b5bc 3a52 c6bc e4be dc3c
00000030: a5c3 ffbd b470 bcbd 1346 a7bd 8ad8 8bbc
00000040: 9b9b ebbd 11d9 4bbd 3c16 b9bd 4d46 0c3b
00000050: af24 b23c c722 3f3d b029 eebd d6fc 05bd
00000060: 59c2 e13a 6a17 623c c8e6 733c cee9 bf3d
00000070: 4f0f a53d b0d9 dfbc 8f7c f2bd a2ea fb3c
00000080: 67f7 04bd 3301 a1bd 0624 54bd 5367 12be
00000090: 99b0 043d c916 e23d e101 3fbd 24f6 4d3d
000000a0: eb05 a1bd 8efb 443e e9af acbd 462f 803d
000000b0: 2058 553c 4ba1 b8bc 9394 6d3b f835 86bd
000000c0: 9b98 ec3d bb95 30bc d8cb 7abd b401 ddbd
000000d0: f7f6 02be 2f6b 18bc 3a52 a83d ce8f 413d
000000e0: b882 cabd 7fd5 843c e698 86bc cdb4 86bd
000000f0: 9096 a2bc 0945 cdbd 627b cabd 1cc8 8c3d
00000100: e921 3e3d 18a7 05bd 04f4 50bd 9565 15bd
00000110: 8f94 8a3d 48b9 b4bd 4a17 afbd c482 84bd
00000120: 3e00 fabd ac25 943d d467 2f3d 5e17 4d3d
00000130: 60ef 4cbb 0b51 e0bc da83 fbbd aa8d 61bd
00000140: fd54 163b e7c7 c13d fd7b e13d bd37 e63d
00000150: 7451 dabd 5de7 24bc 40ff 613e 49de 133d
00000160: 8c1c 8ebd 20b7 34bd f992 85bd 928c babd
00000170: 1dca 443d e054 a7bd 449d 4a3d 071e 3abd
00000180: 8fb2 ad3d 39a9 85bc 9448 3f3d 6348 afbd
00000190: 058e 673d ec31 92bd ea82 2ebc 396f 553c
000001a0: 8029 4fbe 6701 a7bd c284 83bd 3635 7b3c
000001b0: 1986 bcbd 5efb a2be 670b bdbd da18 293d
000001c0: 8fb3 fabd 1183 6e3d b047 15bd ec08 bcbd
000001d0: babe 1fbe 02f1 b8bd 7108 cabb 4dee 7dbb
000001e0: 21f2 2a3d 43fe 04bd 41ea cb3d adac 68bd
000001f0: 2732 44bd 437b d1bd 0452 1cbd 8431 d73d
00000200: 4e76 bdbc b013 2a3d 0d0d 2fbd d1ce 15be
00000210: f131 12bd 9b53 3fbb ae6c 853d 18b7 e83b
00000220: 9e77 0cbc 84e3 b6bc 1e72 8bbd 3e28 aebd
00000230: 56b9 5abd b49d 22bd 108f 883d 5e0b 67bd
00000240: 7122 45bc 83a3 fd3c 3ea8 f23d d6d1 7a3d
00000250: 6af2 9dbc 5a56 aabc aab3 b9bd 917a 1c3d
00000260: 0da9 aabd 523e 97bd def1 efbd 2a14 8b3b
00000270: df81 883d f529 6fbd 1c9a f5bd fce9 54bd
00000280: 71a2 a73c 2109 f3bd 6fd1 803d 8b71 d4bc
00000290: 2827 eb3d f359 38bd 8fd4 cc3c db7c db3b
000002a0: 21e7 59bd 973c 95bd 4dd7 e1bd 7974 06be
000002b0: f3f4 8a3b c78f 88bd 1159 52bd 139d d5bd
000002c0: 7322 3d3d 04d2 a5bd 5bdc f1bd 081b 6bbd
000002d0: 2dec d8bd 296e 91bd ab53 cb3d 71d3 9ebd
000002e0: 55bc 853d 1281 9e3c f1d5 ecbd 3b5d 003d
000002f0: 18df a13d 8c84 debd 4f4a 2ebd 80ab e4ba
00000300: 6f85 ce3d 0afb 143d 266e a93d 07cd 13bc
00000310: 40d5 39bd c4f7 573d 5ec0 663c 7332 683d
00000320: f114 d6be 1a07 b7bd cb4c 053d 96ed 973c
00000330: 81c2 8a3d 23e6 3dbd 4ab3 b8bd 31a2 d2bd
00000340: a8ae 383d 881d 05bc a4a8 2c3e 66b7 913d
00000350: 7f37 a13d 210f f7bd 197c 7dbd 836c 26bd
00000360: bf30 9cbe ee0f b5bd 63f5 083e 1a34 bbbd
00000370: 0797 c63d 24c4 cfbd 9bbb f6bd 6f2c abbd
00000380: 825c 8b3d 9a94 b3be f8fe fbbc 36d0 03be
00000390: 5583 413d 69a6 343d 6d94 503e a9a5 f13d
000003a0: 22dd ebbb ad64 aebd 0ba3 abbd e160 3cbd
000003b0: 6959 503d eae9 21be f931 46bd 21ac 1d3d
000003c0: cfe0 b3bc 9747 bfbc 9647 c6bd 4864 f3bd
000003d0: c748 36be 2f05 17bb a248 0d3e 0383 d2bd
000003e0: 79ea a33d be41 ddbc 1658 033d d1ac fdbb
000003f0: 1547 9b3d a2b6 97be aead b23c a546 b53a
-0.070186384 0.094617456 0.060177606 0.024835004 -0.064268164 0.10035688 -0.1175028 -0.04359472
-0.14946686 -0.022177594 -0.02420913 0.026946492 -0.12488488 -0.09201184 -0.081676625 -0.017071027
-0.11504289 -0.049767558 -0.09037444 0.0021404207 0.021746008 0.046664026 -0.11629045 -0.032711826
0.0017224058 0.013799528 0.0148865655 0.093707666 0.080595605 -0.027325481 -0.11840164 0.03075153
-0.032462504 -0.07861557 -0.051792167 -0.14297228 0.03239498 0.11039502 -0.04663265 0.050283566
-0.07862457 0.19236585 -0.0843199 0.06259017 0.013021499 -0.022537848 0.0036251887 -0.065532625
0.11552545 -0.010777886 -0.061229557 -0.107913405 -0.12789522 -0.009302898 0.082188085 0.047256283
-0.09888214 0.016215084 -0.01643033 -0.06577454 -0.019847184 -0.10022933 -0.09886815 0.06874105
0.046419058 -0.032630056 -0.05101396 -0.03647383 0.067666166 -0.08824402 -0.08549364 -0.06470254
-0.122070774 0.07233748 0.042823628 0.050071113 -0.0031270608 -0.027382394 -0.12281008 -0.055066742
0.002293884 0.094619565 0.11009977 0.112411 -0.10660067 -0.010064927 0.22070026 0.03610066
-0.06939039 -0.044119954 -0.065221734 -0.09108843 0.048044313 -0.081704855 0.049466386 -0.045438793
0.08481323 -0.016316043 0.046700075 -0.085587285 0.056531925 -0.07138428 -0.0106513295 0.013027006
-0.20230675 -0.08154564 -0.06421806 0.015332511 -0.092052646 -0.31832403 -0.092306904 0.041283466
-0.12241279 0.058230463 -0.03644532 -0.09181389 -0.156001 -0.090303436 -0.006165557 -0.0038746775
0.04173482 -0.032469045 0.0995679 -0.0568053 -0.04789939 -0.102285884 -0.038164154 0.10507491
-0.023127701 0.04152268 -0.042737056 -0.14629675 -0.03569216 -0.002919412 0.0651487 0.0071019046
-0.008573441 -0.022325285 -0.068088755 -0.08503769 -0.053399406 -0.03970118 0.06667912 -0.056407325
-0.012032137 0.030961758 0.11848496 0.06123527 -0.019280631 -0.020793129 -0.09067471 0.038202826
-0.08333025 -0.073849335 -0.117160544 0.004244347 0.06665396 -0.058389623 -0.11992285 -0.051980957
0.0204632 -0.118669756 0.06289946 -0.025933048 0.11482078 -0.045007657 0.0250037 0.0066982335
-0.053198937 -0.07286947 -0.110273935 -0.13130368 0.004240626 -0.06668048 -0.05135447 -0.1043035
0.04617543 -0.08096698 -0.118096076 -0.057398826 -0.10591922 -0.071010895 0.09928068 -0.07755173
0.06530062 0.019348655 -0.115642436 0.03133891 0.0790388 -0.10865125 -0.042551335 -0.001744613
0.10084044 0.036372222 0.08272962 -0.00902105 -0.045369387 0.052726522 0.01408395 0.056688737
-0.41812852 -0.089369014 0.03254394 0.018545907 0.0677538 -0.046362054 -0.09018572 -0.10284842
0.04508844 -0.008124717 0.16861206 0.071150586 0.07871913 -0.120634325 -0.061885927 -0.04063083
-0.3050594 -0.08840929 0.13374858 -0.09140797 0.09696775 -0.10144833 -0.12047502 -0.083580844
0.06804754 -0.35074311 -0.030761227 -0.12872395 0.04724439 0.044104014 0.2036912 0.11799175
-0.007197992 -0.08515296 -0.08380707 -0.04599083 0.05086652 -0.15811887 -0.0483875 0.038494233
-0.021957783 -0.023349566 -0.09681623 -0.118843615 -0.178012 -0.002304386 0.13797238 -0.10278895
0.080037065 -0.027008887 0.032066427 -0.0077415486 0.07581917 -0.29631525 0.021811333 0.0013830258

4.bias f4 [64]
00000000: b4b3 a7bd 0e3a 15be 36d2 a93c a7c3 b63d
00000010: 4a77 5fbc ccae 5fbe d52b 0bbe 2728 bbbd
00000020: 5760 31be edcc 8dbe bfdb 50be c094 1fbe
00000030: 0687 35be 9d41 38be f216 75be d074 7a3e
00000040: 0833 18be 6e54 4b3d 959c 07be 6c1c 88be
00000050: f22b 3cbe cfcd 44be f8dc 7fbe c6fe 7b3d
00000060: 1105 83be 67cc d0be f4db 80be 744f 23be
00000070: 302a 57be 842e b53e 6386 5abe d3b1 c9bd
00000080: 85f5 cb3d 6424 6dbe 50dc 22be 07b9 86be
00000090: e67e f9bd 7275 96be 3f9f b8bd 608b 1dbe
000000a0: 122a acbe c313 0dbe 6294 2dbe 8ae7 49be
000000b0: 0c5d b93e 3cbc a6be ed81 cc3d 6d45 23bd
000000c0: 5580 f6bd 8178 f7bd ba39 453e b06a 293d
000000d0: 3bb2 133e b16d 6a3e e596 debd 2ff2 0cbe
000000e0: a907 febd e2f0 64be 8ecd 28be d96d 8a3e
000000f0: ab2f 20be de16 ccbd 1653 81be df77 2e3e
-0.081885725 -0.14572927 0.02073012 0.089240365 -0.013639281 -0.21844023 -0.1359094 -0.09138518
-0.17321907 -0.27695408 -0.20396326 -0.15584087 -0.17727289 -0.1799378 -0.23934534 0.24458623
-0.14863217 0.049641065 -0.13243325 -0.26584184 -0.18376139 -0.19219135 -0.24986637 0.061522268
-0.25589803 -0.40780947 -0.2516781 -0.15948278 -0.21012187 0.3538705 -0.21340327 -0.098483704
0.099589385 -0.23158413 -0.15904355 -0.2631304 -0.12182407 -0.2938648 -0.09014749 -0.15385199
-0.33625847 -0.1377707 -0.16951135 -0.19717231 0.36203802 -0.32565486 0.09985719 -0.03986113
-0.12036196 -0.12083531 0.19260302 0.04136151 0.14423458 0.22893406 -0.108686246 -0.1376426
-0.12403805 -0.22357515 -0.16484663 0.27036932 -0.15643184 -0.09965299 -0.25258702 0.17037915

6.weight f4 [3, 64]
00000000: 38b0 adbd 329e 41bd 4d4b 16bd ca81 f0bd
00000010: 096c cfbd 39f0 2abb dd94 d0bd a4b4 6f3e
00000020: d892 a43d dd64 41be fe04 79be 25eb 08be
00000030: f802 bcbd 562b a1bd f3d1 7e3d 70c7 2b3f
00000040: 3b2d 97bb 9c7f f43d 5eb8 59bd 609b ef3d
00000050: 54aa 4d3d b0ce 0dbe 02a3 7dbb 277e 1bbc
00000060: ba90 7bbe 4114 a8bd a544 02bd 60f2 163e
00000070: 1b3d 043d 99ce 14bf 4e1d f9bd c57c f4bd
00000080: 63ba 773d 52cd 15bd 1ca9 39be 14f5 873d
00000090: 964d 943e 445c 03be 04e9 1c3e 377f 7c3c
000000a0: b548 c73c ef9c d13d 971a b4bd 86d1 173e
000000b0: e8b2 c33d 574d 413e 774c 613c 20e1 64bc
000000c0: 72fa 293d 96dd f73d 1875 8b3d 42df fa3d
000000d0: e988 023c 1366 9dbe fa17 a63b 7883 6e3e
000000e0: 22cc 4a3e 62dd a6be 22d3 03be 0b5d 95bd
000000f0: b358 21bc f504 b3bd 900a 72bc b5eb 923e
00000100: 53b5 52bd 6d6f 553e 02ef 8bbc 7ab8 5c3e
00000110: 9ece 1e3e d8ed cb3d 0846 18bc e9c4 3cbe
00000120: 2530 6f3d ccb2 c5bd b1a4 9c3b 62dc 38bd
00000130: 1534 67bd 1cd8 b13d ef1c 2b3e 879d 173e
00000140: c063 cbbd c520 fd3d 718c 6fbd a946 153e
00000150: 1b1e 423d d0d4 873d 66df a03c 3601 21be
00000160: 9a84 8ebe db8f debd e991 94bd 6a1f 8fbe
00000170: 9064 79bd db57 063e 6eac 04be 8d7d e5bd
00000180: 24cc cd3d 3939 f23c 5a07 e0bd c970 663e
00000190: 3f7e 083e f19f 75bd 0902 053e 0d83 493d
000001a0: e7d7 4d3e 798d b03b a4c0 4a3d 2017 ad3d
000001b0: 42e8 78be b16e e83d a159 d73c 5c46 2bbd
000001c0: cb6b f43d f824 6d3d e7d6 af3d 21f8 91ba
000001d0: 1ab9 633e f657 9bbe b819 92bd 688e 143e
000001e0: a067 9fbd 05f7 8fbe 795d 20be 1f40 68be
000001f0: fb5d 17bc 9f22 c2bd 1f14 e23c d3db 893e
00000200: ee2f c43c 6a2a ec3d 9e2f b03d 72da 903d
00000210: 7e7a 193e 776c 6f3e 6611 c3bd 8c7a 4a3e
00000220: b65e 153e 3a6d 9d3d 1add d93d df88 e63e
00000230: 0dc4 393e 7d12 863c 452c 753e 8555 59bc
00000240: 40d1 debd 90ff 2dbd 9866 3dbd ae29 103e
00000250: 3753 853e 16b4 bc3d 2845 e93d b25c adbe
00000260: 8c53 973f d8bb c13d 0280 8e3e e73a df3d
00000270: a1b6 f6bd f9b1 1fbd cd60 29be efb6 02be
00000280: e1fb 983e b6cb a83e a90d 2d3e 993f 2c3e
00000290: e0f5 083e 6245 323e a92d b13d e992 bc3d
000002a0: 2375 3d3e 82b7 0d3e eb25 053f 95c0 013d
000002b0: 17e8 cfbe f767 a3bd af1f 433e 582f 2e3e
000002c0: f2f8 5d3e ad4f 16be 7ced 933e 29d7 5dbd
000002d0: eba3 4e3d f07f 923d a366 35bd 2930 45be
000002e0: bdff 823e 59bc 693f d402 5e3e 400d 8cbe
000002f0: 7762 9bbd 2fab 0f3f decd 093e 47f2 d63d
-0.08480877 -0.047270007 -0.036692906 -0.11743505 -0.10128028 -0.0026083125 -0.101846434 0.23408753
0.08035821 -0.18886133 -0.2431831 -0.1337095 -0.09180254 -0.07869594 0.062211942 0.6710119
-0.004613546 0.11938402 -0.053154342 0.11699557 0.050211266 -0.13848376 -0.0038701897 -0.009490526
-0.24566928 -0.08206988 -0.031803746 0.14740896 0.032284837 -0.58127743 -0.121637926 -0.119378604
0.060480487 -0.03657276 -0.18130916 0.06638542 0.28965443 -0.12828165 0.15323263 0.01541119
0.024326662 0.10235011 -0.08794134 0.1482602 0.09555608 0.18877159 0.013751141 -0.01396969
0.04149861 0.12102811 0.06809443 0.12249614 0.007967212 -0.3074194 0.005068776 0.23292339
0.19804433 -0.32590777 -0.1287351 -0.07293137 -0.009847808 -0.0874118 -0.014773026 0.28695455
-0.051442456 0.20843287 -0.017081741 0.21554747 0.15508506 0.099574745 -0.0092940405 -0.1843449
0.058395524 -0.096532434 0.004780375 -0.04513205 -0.056446154 0.08683798 0.16710256 0.14806186
-0.09931135 0.12359766 -0.058483545 0.14577736 0.047391992 0.06632388 0.019637775 -0.15723118
-0.27835542 -0.10867282 -0.07254393 -0.27953655 -0.06088692 0.13119452 -0.12956402 -0.112055875
0.10048702 0.029568302 -0.10938902 0.22503962 0.13329409 -0.059966985 0.12989058 0.049197245
0.20101891 0.0053879586 0.049500123 0.08451676 -0.2430735 0.11349238 0.026287856 -0.041815147
0.119346224 0.057896584 0.08585911 -0.001113657 0.2223858 -0.30340546 -0.07133812 0.14507449
-0.07783437 -0.28118148 -0.15660657 -0.2268071 -0.009238715 -0.0947926 0.027597485 0.26925525
0.023948636 0.11531527 0.08602832 0.07072915 0.14988133 0.2338122 -0.09524803 0.1977331
0.1458691 0.07686849 0.10637875 0.450263 0.18141194 0.016366238 0.23942669 -0.013265018
-0.10879755 -0.04248005 -0.04624042 0.140784 0.2604005 0.09214036 0.11390144 -0.33859783
1.1822371 0.094596565 0.27832037 0.108999066 -0.120465524 -0.038988087 -0.16540833 -0.12765096
0.29879668 0.3296792 0.16899742 0.16821136 0.13375044 0.1740928 0.08651287 0.092077084
0.18501715 0.13839534 0.52010983 0.0316778 -0.40606758 -0.07978814 0.19055055 0.17010248
0.21676996 -0.14678831 0.28892124 -0.05416027 0.050449293 0.071533084 -0.044287335 -0.19256653
0.25585738 0.9130302 0.21680766 -0.2735386 -0.0758714 0.5612058 0.13457438 0.104954295

6.bias f4 [3]
00000000: 431c 813e 32d2 a93e 7b3c c73e
0.25216874 0.3316818 0.3891333
