Reinforcement Learning and Optimal Control for Robotics (ROB-GY 6323)/Homework/Series 4/models/lipm_q_function_working.pth (torch, 38112 bytes, 8 tensors)

0.weight f4 [64, 2]
000000 58 65 8e bd 5b 59 ae 3e cc 21 a1 3d 9e 5c fe bc
       -0.069529235 0.34052548 0.07867774 -0.031050023
000010 1f 4c 26 3f b8 b5 70 3e 54 6a 4a bf b9 fb 7d bc
       0.649599 0.2350682 -0.79068494 -0.01550191
000020 1c b6 b0 bd 79 12 e5 3e 2d 07 6f be 3a fe 9e bd
       -0.086284846 0.44740656 -0.23342581 -0.077633336
000030 61 7f c8 be 94 67 ae 3d f2 ce 29 bf fc c4 71 3e
       -0.39159682 0.0851585 -0.663314 0.236103
000040 1c 72 e7 be 77 e4 d2 3e 00 4d 92 be 62 9b 10 bf
       -0.45204246 0.4118993 -0.2857437 -0.56487095
000050 7c c7 f7 be 98 e3 30 bf 14 51 11 bf 09 99 a9 be
       -0.48394382 -0.6909728 -0.5676434 -0.3312457
000060 4e 32 41 3e 26 40 e6 3d 33 fc 5e 3d 04 b6 e8 bd
       0.18866846 0.11242704 0.054439735 -0.11362842
000070 f5 f2 26 bf 7b 84 b9 3e 29 11 4f bd 1b 64 be be
       -0.65214473 0.36233887 -0.050553475 -0.3718575
000080 25 7b f3 be 3b 49 89 3d 33 55 59 bc eb 55 c3 3e
       -0.4755489 0.06703421 -0.013264942 0.38151488
000090 56 91 10 be 17 15 19 3e e0 60 84 be e9 d7 c5 bd
       -0.14117941 0.14949451 -0.2585516 -0.09660322
0000a0 69 fa 51 bf c2 39 83 3e 80 92 24 bf 0e a2 43 3e
       -0.8202272 0.25630003 -0.6428604 0.19104788
0000b0 8b b1 52 3e cf 62 ac 3d 06 66 38 3e 7c 39 42 3d
       0.2057554 0.08417284 0.18007669 0.047418103
0000c0 2a c6 c7 be f0 16 a8 be 8a 1d 1f bf f1 16 80 be
       -0.39018375 -0.3283 -0.6215445 -0.25017503
0000d0 05 4b 2b 3f de 72 72 3e 83 db 48 3d 3e c0 9c bd
       0.66911346 0.23676631 0.049037468 -0.07653855
0000e0 a9 83 96 bd 1e b3 67 3e ae 8b 01 3e b4 e8 60 3e
       -0.07349331 0.22626922 0.1265094 0.21963769
0000f0 63 30 5f be 07 b1 19 be 91 ad 04 bf 0a eb 22 bf
       -0.21795802 -0.15008937 -0.5182734 -0.6363989
000100 54 ff e3 be fe b1 38 be a5 1f 15 be 13 ac d8 3d
       -0.44530737 -0.18036649 -0.14562853 0.105796956
000110 0b f4 a3 be eb 66 26 3e dd 7d 28 be 81 90 c1 be
       -0.32022128 0.16250198 -0.16454263 -0.3780556
000120 dc 27 c5 3d 13 0f 3e be 09 2f b0 3e 37 59 8e be
       0.09626743 -0.18560438 0.34410885 -0.2780244
000130 79 61 dd be da af 2b be fa ba 8a 3e f1 ba 45 be
       -0.43238428 -0.16766301 0.27095777 -0.19309594
000140 7e 61 ea bd e6 57 dd be 84 ce 9d bd 61 b2 95 be
       -0.114443764 -0.43231124 -0.07705405 -0.29237655
000150 d8 37 76 be 32 98 a4 be dd 6a 9a bc ed 0d 9f 3d
       -0.2404474 -0.32147366 -0.018849785 0.07766328
000160 03 16 22 bf 9b 0f b9 bd 73 31 a9 be d1 a5 32 3e
       -0.6331484 -0.0903618 -0.3304554 0.17446066
000170 25 db 10 3f 29 b9 a9 3e 3f 34 13 be 82 b3 04 be
       0.5658439 0.33149078 -0.14375399 -0.12959102
000180 ec 11 a6 bd dc bf c8 3d 65 ad 16 bf 34 93 ae 3e
       -0.08108887 0.09802219 -0.5885833 0.34096682
000190 d1 67 49 be 7d 35 0c 3e 19 72 10 bd cf 44 ca bd
       -0.19668509 0.13692279 -0.035265062 -0.098764054
0001a0 87 f2 a1 3e c7 a3 1a 3e f8 2d 43 3e 6e c3 3b 3e
       0.31630346 0.15101539 0.19060504 0.1833627
0001b0 18 89 01 bf a7 e3 7b 3e 77 be 2c bc 67 c1 0c 3d
       -0.50599813 0.24598561 -0.010543457 0.03436413
0001c0 45 fe 4c be 8c 74 0a be bf 6c 28 3f 36 2f 90 3e
       -0.20018871 -0.13521022 0.65790933 0.2816102
0001d0 a2 87 04 bf 74 42 a4 3d 02 f1 26 be b9 b5 33 be
       -0.5176946 0.080204874 -0.16302875 -0.1754979
0001e0 dc 48 e8 be 74 2e ad 3e 49 61 0a bf 11 5b 15 3d
       -0.45368087 0.33824503 -0.54054695 0.0364638
0001f0 2b a6 fe 3e 25 26 79 3e 41 a9 10 be bd f9 fa be
       0.4973615 0.24330957 -0.14127065 -0.4901866

0.bias f4 [64]
000000 b1 0b 0f 3f 37 2a 30 bf ae 3a dc bf 4c 39 43 3f
       0.55877215 -0.68814415 -1.7205408 0.76259303
000010 a4 23 b0 3d 23 39 4b 3f 3a ac b7 3d 58 c6 cb 3e
       0.08600548 0.7938406 0.089683965 0.39799762
000020 6b 31 1d be 41 66 be be 83 04 f7 be 01 79 38 3d
       -0.15350883 -0.3718739 -0.4824563 0.045037273
000030 f4 0e ca be e5 67 5f 3d 4b b0 97 3e 55 c5 0d bf
       -0.39464533 0.05454244 0.29626688 -0.5537923
000040 ec 0c bd 3d 8f c4 2b be c0 b5 7b 3f 9c 63 d3 bc
       0.0923098 -0.167742 0.98324203 -0.025804333
000050 6c f9 ba be 4e f4 c8 be 5b 50 80 bf e9 24 88 bf
       -0.3651842 -0.3924889 -1.0024523 -1.0636264
000060 a9 94 aa bd 5d 4b 4c 3f de 13 de bf e7 41 39 bd
       -0.08329136 0.79802495 -1.7349813 -0.045228865
000070 c4 f9 27 3f 9c 18 40 bf c4 00 80 3e d3 3e 19 bf
       0.6561549 -0.7503755 0.25000584 -0.5986149
000080 00 68 9c 3f d8 e4 fe 3e b8 32 90 be 37 2e ae be
       1.2219238 0.4978397 -0.28163695 -0.34019634
000090 50 3b aa be d7 d5 6a bf 0c c5 99 3f 01 cb 47 bf
       -0.33248377 -0.91732544 1.2013259 -0.78044134
0000a0 8c 28 26 be 54 13 1b 3e 02 25 e5 3d 08 36 9e 3e
       -0.16226405 0.15144092 0.11188699 0.30900598
0000b0 03 a3 1c 3f 35 b8 1f bf 7a 20 b0 bf 48 0f 4a be
       0.61186236 -0.6239045 -1.3759911 -0.19732392
0000c0 0f 90 4e 3f 56 c2 8e be f4 96 2d 3f a7 e9 c1 be
       0.80688566 -0.27882642 0.6780846 -0.37873575
0000d0 cd 15 45 bf 4a cb 26 bf 77 e3 51 3e bd bc 70 3e
       -0.7698639 -0.65153944 0.20496927 0.23509498
0000e0 17 52 4b 3f 7e 98 d7 bf ae 0d f7 be c8 86 57 3f
       0.79422134 -1.6843412 -0.48252624 0.84190035
0000f0 5c 75 0c bf a8 a9 5f be 49 02 9c bf bc fe 40 bf
       -0.54866576 -0.21842062 -1.2188197 -0.75388694

2.weight f4 [64, 64]
000000 06 f2 db bd 94 77 f6 3d b0 55 10 bc a0 b3 fc 3c
       -0.10739522 0.120345265 -0.008809492 0.03084737
000010 c0 11 e6 bc e6 7d 50 3d 12 57 c9 3d 48 6f b6 3c
       -0.028084636 0.050901316 0.098310605 0.02226986
000020 cc 75 5a 3d d8 7d 96 bd 3e 3e 12 3d 11 eb ba 3b
       0.053334996 -0.073482215 0.03570389 0.0057042916
000030 f4 fc e9 bd ef 6c a4 3d f8 c9 e6 bd 6b c4 96 3d
       -0.114252 0.0802859 -0.11268991 0.073616825
000040 07 2d d6 bd 40 35 a1 3c b4 44 08 3d d7 7f 06 bd
       -0.10457807 0.019678712 0.033268645 -0.03283676
000050 9a 3e b6 bd 12 62 c3 3d fc 3c 86 bd 00 db f7 bc
       -0.08898659 0.0954019 -0.065546006 -0.030255795
000060 41 7d 3a 3d d2 1f cc 3d 90 a5 32 bc a9 70 85 bd
       0.045529608 0.09967007 -0.010903731 -0.06515629
000070 50 1c c6 bd 46 af fa bd 09 df c4 bc fd 5d 9e 3d
       -0.09673369 -0.12240462 -0.024032133 0.077327706
000080 ca b1 8c bd 9a c1 54 3d 8c b1 41 bd 42 7a 21 bd
       -0.06869848 0.051942445 -0.047288463 -0.039423235
000090 57 0f b8 bd b9 4b bd bd 92 dc 2e bd 4e 74 63 3d
       -0.08987301 -0.092429586 -0.04269082 0.05553084
0000a0 0d 35 86 bd e9 fe 99 bd 5d e5 64 bd 6c 7c 36 3d
       -0.065530874 -0.075193234 -0.0558828 0.04455225
0000b0 8e 92 45 bd e2 0b d7 3d 20 1b 77 bc ca 5a f1 bc
       -0.04823547 0.10500313 -0.015082151 -0.029462237
0000c0 00 5c 98 3c e8 d8 c3 3d e5 28 5f bd c4 be cd 3d
       0.018598557 0.09562856 -0.05448236 0.10046151
0000d0 9d 46 71 bd 50 8c 96 3d 70 d7 89 bc c6 90 a3 3d
       -0.058905233 0.07350981 -0.016826361 0.07986598
0000e0 20 b9 a9 3d 34 75 a2 3d 98 db c0 bc db bc 5a 3d
       0.08287263 0.07932511 -0.02354221 0.053402763
0000f0 94 cf d4 bd 2c 7a d2 bd 9e 26 fa bd e3 1f 93 3a
       -0.10391155 -0.10277209 -0.12214397 0.0011224713
000100 19 a3 9d bc 8b ec 7b be e6 07 7d bd 4f b3 3b bc
       -0.01924281 -0.24601953 -0.06177511 -0.011456325
000110 5c 3e c6 3b c2 f0 fc 3d dc 9b 9e bd 70 79 18 3d
       0.0060499143 0.123506084 -0.077445716 0.037225187
000120 12 b6 85 3d 42 ba 07 bd 77 83 31 bd 72 d6 02 be
       0.06528868 -0.033136614 -0.043338265 -0.12777117
000130 2b f4 2f be 5a a2 ba bd b2 7a 78 3d 93 9b 2a be
       -0.17182986 -0.09112997 0.060663886 -0.1666091
000140 c8 0f 67 3c 96 9c 19 3c 30 a6 c1 bd 48 b9 cd bc
       0.014102884 0.009375712 -0.09455526 -0.025112763
000150 76 f2 c3 bd 9c b0 1b bd fd 4d 65 3c e8 cd 30 3d
       -0.0956773 -0.038010225 0.013995645 0.043165118
000160 01 93 11 3d dc 6b 4a bd a1 55 58 3b 5a 2d f0 3c
       0.035540584 -0.04941927 0.0033010023 0.0293185
000170 6c 60 c3 bc f7 3c 05 be 46 70 b8 bd b8 ec 9c bc
       -0.023849688 -0.13011537 -0.090057895 -0.019155845
000180 7b 5d 79 3d 50 ca 6b bd 5b fd e0 3d d3 59 c7 bd
       0.060880166 -0.057565987 0.10985824 -0.097339295
000190 75 b5 26 bd 20 39 31 be 7e 1d a2 bd 27 f5 0c be
       -0.040700395 -0.17306948 -0.079157814 -0.13765393
0001a0 d2 e9 af 3c 98 20 f6 bc ae df 01 3d 68 cb 0f be
       0.021473799 -0.030044839 0.03170746 -0.14042437
0001b0 84 d9 a1 3d a0 c4 a4 3d 74 1c 1b be 88 82 3c bb
       0.07902816 0.08045316 -0.15147573 -0.0028764326
0001c0 34 91 af bd 9c bc 15 bd a2 e3 00 3e 30 62 fd bc
       -0.08572617 -0.036556825 0.12586835 -0.030930609
0001d0 01 2b 2f be ed cf ab bd 60 54 90 3b 23 a5 05 3d
       -0.17106248 -0.08389268 0.0044045895 0.03262819
0001e0 f6 c0 a3 3d 03 e1 38 be 40 ab 49 bb 3f 7f 54 3c
       0.07995789 -0.18054585 -0.003077224 0.012969791
0001f0 9e 64 08 bd b2 58 9c 3d 3b 74 4a be 3b db 6d 3c
       -0.03329908 0.07634105 -0.19770901 0.014517601
000200 6d a2 b6 bc 96 54 2d be 66 25 d8 3d ce 97 47 3d
       -0.022294248 -0.16926798 0.10554008 0.048728757
000210 8e b4 f1 3d 56 f3 f8 bd c5 94 ad 3b 3b 33 c5 bd
       0.11802016 -0.12155788 0.0052972757 -0.09628912
000220 8a 28 15 3e 20 de 06 3c 04 87 fd bd 14 bb bc 3d
       0.14566246 0.00823167 -0.12379268 0.0921537
000230 67 83 d9 bd fd 2c 29 3d f9 6c 99 bd 8b fc 97 3d
       -0.10620766 0.04130267 -0.07491488 0.074212156
000240 73 08 bc bb 26 a4 b5 bd dc d8 36 bd e4 57 73 bd
       -0.005738312 -0.088691995 -0.044640407 -0.05940999
000250 44 a6 04 3e a8 14 23 bd 59 8e 80 3d 5c ee 02 3d
       0.1295405 -0.03981462 0.06277151 0.0319656
000260 62 97 86 bd c0 53 95 bc 2f a7 cd bd 00 f3 81 3d
       -0.06571843 -0.018228412 -0.10041653 0.06345177
000270 0f 65 98 bd 13 b6 d2 3c f4 d6 98 3c fc f9 7d bd
       -0.074411504 0.025721585 0.018657185 -0.06200598
000280 de df c5 bd 0c 58 ed bc 29 b5 e8 3d fa d5 ab 3d
       -0.0966184 -0.028972648 0.113626786 0.08390422
000290 6f 45 c6 3c a0 68 b6 bd b3 1f 83 bc 05 ed f2 bd
       0.02420303 -0.089066744 -0.016006326 -0.11861614
0002a0 e5 f4 e1 bd 0d 9b a4 3d 7f a9 92 bd d5 2a c6 3c
       -0.11033038 0.08037386 -0.07161235 0.024190346
0002b0 67 c8 d2 3c 7c 88 f8 bc 64 64 8c bd e0 0b e5 3d
       0.025730325 -0.030338518 -0.068550855 0.111839056
0002c0 ff 86 b6 bd 30 54 2c 3d f8 26 28 bd 6f e6 9f 3b
       -0.08912467 0.042072475 -0.04105279 0.0048797647
0002d0 bf ca c9 bd cf c7 03 bc b7 50 d9 3d 50 aa 84 ba
       -0.09853124 -0.008043244 0.10611098 -0.0010121558
0002e0 10 1e cd bc af 32 e2 bd 7d 44 40 bd 52 62 d9 bd
       -0.025038749 -0.110448234 -0.046940316 -0.10614456
0002f0 5a a0 c6 bc 05 46 97 bd d9 7e 79 3b e6 67 5a 3b
       -0.024246383 -0.07386402 0.0038069992 0.0033326088
000300 93 f5 7c 3d 8b 74 a4 bd 9c ac 6d bd 1e 19 5c bc
       0.061757635 -0.08030041 -0.05802594 -0.013433723
000310 d5 16 9e 3c d2 6d 84 3d 8c 74 e5 3b 83 88 c3 bd
       0.019297997 0.06466259 0.007002419 -0.09547522
000320 c5 99 75 3d 8b 6c 94 bd a6 4e f9 bd 67 0f 65 3c
       0.0599611 -0.072472654 -0.12173204 0.013980723
000330 74 c4 35 bc 60 da d1 bc 29 25 94 3d 62 ce dd bd
       -0.011094201 -0.025616825 0.0723365 -0.1083038
000340 f9 2c c9 3d 80 71 0f 3d 0b d0 90 3c 78 fd e6 bd
       0.09823031 0.03502035 0.017677328 -0.11278814
000350 30 15 af b8 a5 63 a4 3d 43 79 df bd ac e0 99 bd
       -8.348597e-05 0.08026818 -0.10911801 -0.07513556
000360 cd 7d e5 3d 4e 3e 8d ba 05 66 41 be 70 98 19 3c
       0.11205635 -0.0010776015 -0.18886574 0.009374723
000370 8a 97 a4 bd 0c d9 d8 bd 08 29 a7 3d f1 6b 6d bd
       -0.08036716 -0.105882734 0.08162123 -0.05796427
000380 1f 21 e5 bd d8 3f 32 bd 80 54 bc 3b 2d 76 36 bd
       -0.11187958 -0.043517917 0.005747378 -0.044546295
000390 0c c3 d4 3c 4d 12 95 bb 49 7b 9d bd 57 53 02 bd
       0.025971912 -0.0045493008 -0.076895304 -0.03181776
0003a0 46 52 90 3d b6 02 13 3d 8c 92 71 bd c8 49 34 3c
       0.070469424 0.035891257 -0.05897765 0.011003919
0003b0 c1 dd 93 3d d2 77 c5 3c 44 ff e9 bc 1d 4e 85 3d
       0.072200306 0.024104986 -0.028564103 0.065090396
0003c0 62 5a 10 be a5 07 c8 3d bb bc 7b bc 45 f3 05 3d
       -0.14096978 0.09767083 -0.015364821 0.032702703
0003d0 99 1e 97 3d dc 3d ac 38 90 b7 15 be 9e 7c 24 3c
       0.07378883 8.213121e-05 -0.14620805 0.010039477
0003e0 ed 33 74 bd ba bb 44 bd 2e 9c b8 bd 3c 72 1c 3d
       -0.059619833 -0.048030593 -0.09014164 0.03819488
0003f0 d0 3f 82 3d 49 bb 55 bd c5 e9 43 be bc ac d4 bc
       0.063598275 -0.052180562 -0.19132145 -0.025961272

2.bias f4 [64]
000000 7a 92 b3 bd 40 c1 90 bd 22 44 0b be a7 b1 03 3e
       -0.087681726 -0.070681095 -0.1360021 0.12860738
000010 82 37 73 3c bd a6 10 bd e6 d9 61 3f d9 2d 88 bc
       0.014844777 -0.035315264 0.8822311 -0.016623424
000020 ed bd 21 3e f1 f2 19 3d c6 6e f6 bd 2c 22 0b bf
       0.15795107 0.037585203 -0.12032847 -0.5434902
000030 1b 7b 8e be 09 f9 4a 3d 52 c5 be 3d ae 90 9a bd
       -0.27828297 0.049553905 0.093149796 -0.07547127
000040 f8 68 e7 bd 0a 0b ad 3d 9f 80 e0 bd 79 c0 31 3f
       -0.11299318 0.08449371 -0.109620325 0.69434315
000050 79 8b 18 bd 33 4b 29 3f d4 15 fa bc 74 a5 2d bd
       -0.037242386 0.6613037 -0.030527987 -0.042394117
000060 df 51 1a 3d 21 08 a7 be 36 f0 ed bd c9 4c 10 bd
       0.037675735 -0.3262339 -0.11618082 -0.035229478
000070 6d 7e 2d 3e 91 d1 92 3d 3e 3f 10 3e fb b7 91 3c
       0.16942759 0.07168878 0.14086625 0.017787924
000080 35 82 bc be 4c 16 d8 bd 09 c9 af be ca 6d 1b 3d
       -0.3681809 -0.10551128 -0.34333065 0.0379465
000090 d6 65 7e bd ce 92 7e 3d ad ef d9 bd e0 79 1d 3f
       -0.062108837 0.062151723 -0.10641418 0.6151409
0000a0 3a 52 05 be 19 71 ed bd 8e bb 88 be 0a 54 50 be
       -0.13019648 -0.11593837 -0.26705593 -0.20344558
0000b0 40 fc ef bc ec 84 a8 bd 97 46 48 3c b8 9f d3 3d
       -0.029295087 -0.08228478 0.012223861 0.10333198
0000c0 ae f9 d0 3c 01 13 58 bb d3 93 d1 bd c3 02 d3 bd
       0.025509682 -0.0032970312 -0.10233273 -0.10303261
0000d0 3b 4c 15 3d 56 a1 1b 3f fa 0e 29 3e 55 81 51 3d
       0.036449652 0.60793054 0.1650962 0.05114873
0000e0 22 69 ba bd 76 c2 bb bd 0f 33 93 bc d6 32 a3 bd
       -0.09102084 -0.0916795 -0.017968683 -0.079686806
0000f0 2f 94 ec 3c 3a 73 48 3d 5e 5e be bc 62 a1 f1 bd
       0.028879253 0.048938014 -0.023238357 -0.117983595

4.weight f4 [64, 64]
000000 fc 2e c7 bd 6c 5d bb bc 1a 73 5d bc 65 93 d9 3d
       -0.097257584 -0.022871695 -0.013516212 0.106238164
000010 cc a5 a3 bd 27 e2 7c 3d 70 fe 9e 3d cc b3 0f bd
       -0.079906076 0.061739113 0.07763374 -0.035083577
000020 ff 12 93 bd 01 db ac bd 12 2e b6 bd 84 2f 81 bd
       -0.071813576 -0.08440209 -0.08895506 -0.06307891
000030 99 49 34 bd a5 72 f7 3d a5 fb a4 3d c1 f1 1d bd
       -0.0440155 0.120824136 0.0805581 -0.038560633
000040 24 2b cf bd 98 f0 58 3d 5b 2b 5c bd 73 0b 89 bd
       -0.1011565 0.052963823 -0.053752284 -0.06691637
000050 79 dc 43 3d 52 98 b2 3d 85 bf 4b 3d 46 30 d3 bd
       0.04781768 0.08720459 0.049743194 -0.10311942
000060 4a 60 2e bd fb be d2 3d 91 51 ed 3c 70 e0 27 be
       -0.042572297 0.10290333 0.028969558 -0.1639421
000070 3a b0 37 3c 04 71 18 3d e6 57 fe 3c 85 43 d8 bd
       0.011211449 0.037217155 0.031047773 -0.10559753
000080 ad 7a 23 be 29 ca dc bc 87 a9 48 3e 05 1b b0 3c
       -0.15964766 -0.026951866 0.1959592 0.021497259
000090 e5 e5 8f 3d 57 e1 86 bd 5e 08 ef 3c fb 15 cc 3d
       0.07026271 -0.06585949 0.029178794 0.0996513
0000a0 19 5d 5f bd 66 b5 2e bd 21 b8 98 3c f2 0f 0e be
       -0.054532144 -0.042653464 0.018642487 -0.1387327
0000b0 07 c9 f1 ba 79 b8 14 3e 7f 67 15 be 49 b9 21 bd
       -0.0018446752 0.14523496 -0.14590262 -0.039483342
0000c0 0f d1 13 bb af 8b a5 bd fb 7a ae bd 94 91 af bc
       -0.0022555029 -0.08083283 -0.085195504 -0.021431722
0000d0 69 ff 94 3c ab 09 f5 3d 84 de 2a bd b6 be 3f be
       0.018188195 0.11964735 -0.041716114 -0.18725094
0000e0 50 0b 51 3c 32 71 c6 3d 00 2e 99 bb ac 24 7b 3d
       0.012759045 0.09689559 -0.004674673 0.06131427
0000f0 d6 ad cb bc fe 5a c0 3d ef 00 14 3c 24 ca e4 bd
       -0.024863165 0.093923554 0.009033426 -0.11171368
000100 21 39 9c 3d 69 08 99 bd eb df 03 be 6b 10 a6 bd
       0.07628084 -0.07472307 -0.12878387 -0.081086
000110 54 7d ae bd d3 be ff 3d 3e cd 2e 3c af 3e 33 3d
       -0.08519998 0.12487569 0.010669051 0.04376095
000120 d3 33 c3 bd 7a a9 c1 3d ba 8a 97 bd 2a cc a1 bd
       -0.09531369 0.09456153 -0.07399507 -0.07900269
000130 12 1d b6 bc 1d 27 64 bd 79 75 b0 3d 22 13 16 bc
       -0.022230659 -0.055701364 0.08616156 -0.009159835
000140 8e cb e2 bd e8 a4 9a bd 26 d9 8d bd 81 73 bd bd
       -0.11073981 -0.075509846 -0.069261834 -0.09250546
000150 e1 50 a6 3d dc 8a 4f 3c 3e 0e 7d 3d a5 70 0a 3c
       0.08120895 0.012667384 0.06178116 0.008449708
000160 f0 e0 95 3d cd d8 8e 3d 08 66 c8 3d e1 12 7f bd
       0.07318294 0.06974945 0.09785086 -0.062273864
000170 76 72 04 be aa b7 c9 3d 27 35 25 bd 0b 38 bd 3c
       -0.12934288 0.09849484 -0.040333893 0.023098012
000180 36 59 0b bd 4a 53 34 bc 40 b8 07 bd a3 65 92 3c
       -0.034020625 -0.011006186 -0.0331347 0.01787073
000190 fb cd 73 bc ba b3 a0 3c 05 de 51 bd b0 f8 41 3d
       -0.014880653 0.01961695 -0.051237125 0.047356308
0001a0 db 3c 02 3c 78 ea 9a bd 6c 8a 90 bc 50 7f cf 3c
       0.007949079 -0.075642526 -0.01764413 0.025329262
0001b0 ba e0 f3 bd e5 77 90 3d a3 a7 ce bc c0 a5 db bc
       -0.119080976 0.07054118 -0.02522642 -0.026812434
0001c0 03 fb 1c 3d 08 65 80 3d e4 f0 90 3b b4 29 f4 bd
       0.03832532 0.0626927 0.0044232477 -0.11922017
0001d0 57 cc 96 3d 3e a8 e1 bd b3 fc c5 bd b9 b4 18 bd
       0.073631935 -0.11018418 -0.09667339 -0.037281726
0001e0 50 7c 14 bd 68 e5 ad 3c 25 0d 99 bd cc 8e e2 3d
       -0.036251366 0.021227553 -0.0747321 0.110623926
0001f0 68 d5 10 be 4f df 96 3d bd 8f e7 3b 1b fa 1d 3d
       -0.14143908 0.073668115 0.0070666955 0.038568597
000200 6e e5 f1 3d 35 a5 34 3d 41 ef 9a 3d 1a a6 d1 bd
       0.11811338 0.044102866 0.07565165 -0.102367595
000210 76 57 de 3d 4e ee d4 3c 11 a1 f8 bd 04 28 c6 3c
       0.108565256 0.025992539 -0.12140096 0.024189003
000220 f5 8f cb 3d b3 6a c5 3d d8 90 48 bd 0c 14 5e bc
       0.09939567 0.09639492 -0.04896626 -0.013554584
000230 42 a8 76 bd 26 1d 8f bd b3 2d 07 3e e7 52 e7 3c
       -0.060219057 -0.069879815 0.13201027 0.028237773
000240 c0 69 9e bd b7 5e d3 bd 0c e1 49 3d b1 be 0d bd
       -0.07735014 -0.103208 0.049286887 -0.034605686
000250 01 93 3f bd ee c2 8b bd c8 9d ab 3d fc 77 9c 3d
       -0.046771053 -0.06824289 0.08379704 0.07640073
000260 85 ef a9 3d 5a 57 b6 bc 9e 0d e6 bd b8 8a ed bd
       0.08297638 -0.02225845 -0.11233066 -0.11598724
000270 44 20 e4 3d 5e 14 f4 3d f5 ae d8 bd 6b b8 7c bd
       0.11138967 0.11917947 -0.105802454 -0.061699312
000280 d5 12 df 3c 80 68 ba 3d 85 10 17 bd 3e 39 45 bd
       0.02723066 0.09101963 -0.03688099 -0.048150294
000290 bc 69 5f bd 7d 41 c9 bd 8e 32 fb 3d ca b8 da ba
       -0.054544196 -0.09826944 0.12265502 -0.0016687152
0002a0 b6 db a1 bd d7 98 a9 3d a5 1e 97 3c 24 19 19 3d
       -0.07903235 0.08281105 0.01844723 0.03737749
0002b0 78 3d 05 3c d4 f1 2c bd 47 ab a5 3d 6f af 38 3d
       0.008132331 -0.042222813 0.08089309 0.04508918
0002c0 73 b5 9c 3a 62 79 d3 bd 2e a3 c5 bd 97 b7 aa 3d
       0.0011955932 -0.10325886 -0.09650265 0.08335798
0002d0 33 6b 4a 3d 8e d4 72 ba 3f 80 a6 3b 68 ea 65 bd
       0.04941864 -0.00092632405 0.005081206 -0.05613175
0002e0 3d 64 bf 3d 86 c2 ce bd 58 7f ae bc fd ca d8 bd
       0.09345291 -0.10095696 -0.021300957 -0.10585592
0002f0 69 e1 2e 3d 66 69 92 3d 72 b9 c2 bd dc ad a1 3d
       0.042695437 0.071490094 -0.09508027 0.07894489
000300 68 d4 a8 3c 02 0a 4a bb 2d 41 af bd 91 c3 b6 3d
       0.020609096 -0.003082872 -0.08557353 0.0892402
000310 71 6b 48 bd 03 e9 74 3d 17 7b fe bb 9c 5e 5c 3d
       -0.04893059 0.05979253 -0.0077661383 0.053801164
000320 81 51 25 be a2 bb c0 3d 11 db 32 3d 9d ca 58 3d
       -0.16144373 0.09410788 0.04366595 0.052927602
000330 1f 4d bc bd dd 21 b6 bd c4 d8 db bd c1 5a d2 bd
       -0.09194397 -0.08893178 -0.10734704 -0.10271216
000340 60 ad f3 3b 3c d0 cc 3b ae fe 1f be a5 cb 83 3c
       0.0074364394 0.0062504094 -0.15624496 0.016088316
000350 fb df 02 bd c6 70 ba 3d 87 12 37 bd 81 db 90 3d
       -0.031951886 0.09103541 -0.044695403 0.07073117
000360 bb d9 b5 3c b5 3b 19 bd 36 7e 98 bd 84 7e 76 be
       0.022198549 -0.037410457 -0.07445948 -0.240717
000370 8f 51 c1 bd 13 22 63 3c 8e 3d 93 bd b4 75 ea bd
       -0.09439384 0.013863104 -0.07189475 -0.11448231
000380 75 0f 0e be f9 7e dd 3d e0 d1 4c be c5 54 bf bd
       -0.13873084 0.10815234 -0.20001936 -0.093423404
000390 06 bf cc 3a 9a eb 00 be f4 65 9f 3d 9f a9 64 3d
       0.0015620894 -0.12589875 0.07783118 0.055825826
0003a0 b0 66 10 be c8 7a 68 bd 6d 83 70 3c 4e 10 a3 3d
       -0.14101672 -0.05675772 0.014679772 0.07962094
0003b0 89 d0 23 3d 68 8e 82 bd 47 b8 d6 bd 84 19 85 bd
       0.039993796 -0.06374818 -0.10484367 -0.06499007
0003c0 66 c8 8f bd 3c 47 d8 bd 77 b9 97 bd f0 54 b5 3d
       -0.07020645 -0.10560462 -0.074084215 0.08854091
0003d0 c0 d1 58 3d 39 c1 aa 3c 34 81 a9 3d 48 82 46 3c
       0.05293441 0.020844089 0.08276597 0.012116022
0003e0 10 ba a1 3d b2 7d db bd c6 28 c2 3d 7e a9 f9 3d
       0.07896817 -0.10717334 0.09480433 0.12190531
0003f0 a8 c3 5c bd 98 b9 af 3d 5c 28 93 3d 0a ec ce 3d
       -0.05389753 0.08580321 0.07185432 0.10103615

4.bias f4 [64]
000000 fe 2b 7f be 8d d6 a0 3d e4 f6 3d bc 8c dc 45 3e
       -0.24919125 0.07853422 -0.011594508 0.19322413
000010 ab ab 0e be 66 41 27 be a1 2b ad 3e 9f ee 63 3e
       -0.13932674 -0.16333541 0.3382235 0.22258995
000020 e0 cc a5 bd 9d f9 14 be 4c 83 0c 3e 94 67 94 be
       -0.080957174 -0.14548345 0.13721961 -0.28985274
000030 93 9d 58 bc bc a0 ad 3e 30 0a 14 3e 97 8a 03 3e
       -0.013221162 0.33911693 0.14457011 0.12845837
000040 ba ff 8e 3c 89 47 44 be a1 e5 53 3e 5e c4 35 3c
       0.017455924 -0.19167913 0.20693065 0.011094181
000050 77 34 4c 3c 24 0a 10 be 01 e2 3a be 83 72 08 3c
       0.0124636805 -0.14066368 -0.18250276 0.008328083
000060 15 a3 3f be 77 f9 27 be 83 75 27 be 88 50 80 3e
       -0.18714555 -0.16403757 -0.16353421 0.2506144
000070 5a 75 1c be cc 85 ac be ba 5d ac 3d 00 81 45 3d
       -0.15279141 -0.3369583 0.084163144 0.048218727
000080 47 7f 85 be 66 f0 f4 bd ee ae d5 bd 59 8a 1d 3f
       -0.26073667 -0.11959915 -0.10433756 0.61539227
000090 c9 c0 16 be 55 98 41 bd 09 fd 06 be c8 21 45 bc
       -0.14721979 -0.047264416 -0.13182463 -0.01203198
0000a0 32 47 46 be c4 6e 81 be 85 fa e1 3d 07 72 97 3e
       -0.19363096 -0.2527982 0.11034111 0.29579183
0000b0 93 5d 71 be a7 3d 8e bd 32 86 e2 bc 37 86 a8 3e
       -0.23570852 -0.06945353 -0.02765188 0.32914898
0000c0 0b 3f 42 be 8b 77 1e bb fe 76 64 be f6 46 26 be
       -0.18969361 -0.002418014 -0.22311017 -0.16238007
0000d0 10 43 c8 3b bc 2f 01 be e9 97 0f 3e 8c 05 60 3e
       0.00611151 -0.12615865 0.14022793 0.21877116
0000e0 44 a5 d4 bd 71 97 89 3e 19 e1 3f 3e de c9 30 be
       -0.103830844 0.26873353 0.18738212 -0.17264506
0000f0 14 ed 25 3d 2b dd b0 bd 15 3a 0e be e9 84 84 bd
       0.0405093 -0.086359344 -0.13889344 -0.06470663

6.weight f4 [3, 64]
000000 ca 51 c1 bd 13 17 e3 3d ad c2 40 bd ce 50 d4 bd
       -0.09439428 0.110883854 -0.047060657 -0.10366975
000010 30 68 50 3d 3c 76 c9 bd 92 4c 2c be 8e 92 eb bb
       0.05088061 -0.098370045 -0.16826084 -0.0071891015
000020 63 81 11 3c ec 30 b7 bd a6 12 30 3e 43 98 7c 3e
       0.008880946 -0.08944878 0.17194614 0.24667458
000030 f8 2e 7e bd e4 88 8c be 9a 0c 13 3e 60 b5 d2 3e
       -0.06205651 -0.2744819 0.14360276 0.41154003
000040 f9 97 fd bc 70 aa 0d be 96 73 ba 3d ad 54 a1 3d
       -0.030956255 -0.13834548 0.091040775 0.07877479
000050 48 67 19 3e ae a9 cb bd 17 7e 98 bd f9 09 29 bd
       0.14980805 -0.09944473 -0.07445925 -0.041269276
000060 b3 42 91 bd 3d 0f 23 3e 2e e4 a0 bc b6 a0 e6 be
       -0.070928 0.15923782 -0.019640055 -0.45044488
000070 ae 7c 07 3d 20 de 57 be 0b 6f 89 3d 7e 06 ac 3c
       0.03307789 -0.21080828 0.06710633 0.02099919
000080 2b de 95 3c 2e 92 f9 3d ed a6 23 3c 6e b8 29 be
       0.018294415 0.12186085 0.009988529 -0.1657426
000090 12 57 8e bd d1 b9 94 bd d6 15 1e 3e 35 7b 1b bd
       -0.06950201 -0.07262004 0.15438017 -0.037959296
0000a0 0f e5 81 bd 1d 49 51 3d ca fc 84 3e b4 17 be 3d
       -0.063425176 0.051095117 0.25974113 0.09281865
0000b0 f3 78 f3 3c 6a c2 0b 3d ba a7 28 be dd e8 d8 3e
       0.029720759 0.034120955 -0.16470233 0.4236516
0000c0 f5 80 41 ba 1c 80 6e 3d 8a 2d a3 bd 08 e7 c2 3c
       -0.0007381582 0.058227643 -0.0796767 0.023791805
0000d0 c9 a1 bf 3d d2 94 8c be b2 fc 41 be 34 82 30 3e
       0.0935703 -0.2745729 -0.18944052 0.17237169
0000e0 46 31 28 3d 91 f4 6b 3e c4 4e 4a bb 9d fd 81 bd
       0.041062616 0.23042513 -0.0030869702 -0.06347201
0000f0 44 2d 78 bd 9d 4f 08 3e 3e 27 68 bc 73 bc c6 bd
       -0.060590044 0.1331162 -0.014169512 -0.097039126
000100 65 78 2b bd 79 86 b4 3d 08 a4 27 3d 63 ac 1d be
       -0.041862864 0.08814711 0.040927917 -0.15397792
000110 6a 85 e6 3c f4 5a a4 bd 5e 96 24 be ac e4 89 3c
       0.028139789 -0.080251604 -0.16072986 0.016832672
000120 fe 4e e0 3d 70 1f 90 3d 4e 14 80 3d 03 66 8e 3d
       0.109525666 0.07037246 0.06253873 0.06953051
000130 82 c0 44 bd 3d be 28 3e ea 11 54 3e 59 64 12 3e
       -0.048035152 0.1647882 0.20709959 0.14296092
000140 6f eb db 3d b5 3c 6d 3e 29 8a 27 3e 12 d9 33 3e
       0.10738265 0.23167689 0.16361298 0.17563275
000150 6a d4 f5 3d 27 d1 b4 bd a2 c4 b7 3d fc b7 16 bd
       0.120034054 -0.08828955 0.089730516 -0.036796555
000160 19 ad c4 bd 39 5d 26 bd f5 66 34 3b 4a 97 7d bd
       -0.09603328 -0.040616248 0.0027527187 -0.06191186
000170 db 0b 4c 3d 8f 53 06 be 32 3c 24 3e 2b 9e c6 3d
       0.049815994 -0.13117813 0.16038588 0.09698137
000180 ad 72 30 3e b2 9a fe 3d eb 37 d6 bd ab 33 b1 be
       0.17231245 0.124318495 -0.10459884 -0.34609732
000190 d1 8c e5 bd ae 2f 36 3e 96 bf f9 bb 22 be 00 3e
       -0.11208499 0.17791626 -0.007621716 0.1257253
0001a0 fa e2 51 bd 68 13 8d 3d 37 62 80 3e d7 01 a0 3d
       -0.051241852 0.06888467 0.25074932 0.07812851
0001b0 3d 60 64 3d 03 e5 bd 3d fc 11 5c 3d 11 c4 96 3e
       0.055755842 0.09272196 0.05372809 0.29446462
0001c0 58 71 64 3d c9 b2 9e 3d 36 e5 b0 3d 6d 27 a6 3d
       0.055772156 0.07748944 0.086374685 0.081129886
0001d0 cc f3 e6 3d 85 db d3 3c 08 70 e3 bd da be 4e 3e
       0.11276969 0.025861511 -0.11105353 0.20189992
0001e0 8a ac 5d 3d 08 bc 39 3e 1b 4b 10 3e 23 83 c3 3c
       0.054119624 0.18138134 0.1409115 0.023866242
0001f0 0e ec 5c 3d c0 93 ff 3d c6 3b 60 bd 8c 40 aa bd
       0.053936057 0.12479353 -0.054744504 -0.083130926
000200 23 95 0f 3e 99 65 aa bd ef 65 37 bd 5f c9 b7 bd
       0.14021735 -0.083201595 -0.044774946 -0.08973955
000210 5c 68 c0 3c e1 ec a6 3d 65 0c e7 bd f5 9a 5c 3e
       0.023487262 0.0815065 -0.11281661 0.21543486
000220 46 d1 0b bd fc ea dc 3d 18 bf 5a bd 02 38 7a be
       -0.034135126 0.10787007 -0.053404897 -0.24435428
000230 59 60 24 bd d2 68 59 b8 f6 cf 84 3e 68 42 bc bd
       -0.040130947 -5.1834453e-05 0.25939912 -0.091923535
000240 30 09 ce bc 1e c0 1b bb d7 ed e6 3d e3 a6 16 3e
       -0.025150865 -0.0023765634 0.11275833 0.147121
000250 30 fa 82 3d c4 11 0c be 72 5a 17 3c 3e 81 40 3e
       0.06395376 -0.13678652 0.009237872 0.18799302
000260 b8 3d 89 bd 66 c0 99 bc 92 d4 5c 3d e3 17 2b 3e
       -0.06701225 -0.0187685 0.05391366 0.16708331
000270 11 74 e4 bd 37 a5 00 be 09 17 48 3e c2 14 2b 3e
       -0.111549504 -0.12563024 0.19540037 0.16707137
000280 d0 05 33 3d 60 ee 95 3d cd 4f f2 bd f2 a9 bf be
       0.043706715 0.07320857 -0.11831627 -0.37434345
000290 1c 90 7e 3d 58 19 7b 3e bf ee fc bd 7d 2b a1 3c
       0.062149152 0.24521387 -0.12350225 0.019674057
0002a0 2c e7 fa 3d 65 3a 8b 3e 48 9e 80 3e af 68 93 3e
       0.12251124 0.2719299 0.2512076 0.28790805
0002b0 ec d6 52 3e c2 16 f3 ba ae a3 ff 3d 7e bf c7 3d
       0.20589799 -0.0018546211 0.12482391 0.09753321
0002c0 67 3b 3e 3e fb 5f ba 3d a4 41 56 3d 04 af 92 3e
       0.18577348 0.09100338 0.052308694 0.2864915
0002d0 75 c2 37 bc 40 5c 4e bd 6e 64 ac bc 0e 9c c6 3c
       -0.011215796 -0.050380945 -0.021043982 0.024244335
0002e0 aa c1 cd bd 8c de 4a 3d bb c2 a5 3e 68 0d dc 3d
       -0.10046704 0.049528643 0.3237513 0.107447445
0002f0 cb b3 2b 3e a1 88 aa bd 51 ac 47 bd d8 28 fb bb
       0.16767804 -0.08326841 -0.048748318 -0.007664781

6.bias f4 [3]
000000 d0 60 04 3f 06 07 de 3e 4b 29 c1 3e
       0.51710224 0.43364733 0.37726817
