Robot Perception (ROB-GY 6203)/Homework/HW1/Q2/saved_models_s/v2_BSZ32_EPS50_LR0_001_HUS512_LDM10/Classifier_final_epoch_50.pth (torch, 13216 bytes, 4 tensors)

classifier.0.weight f4 [128, 10]
0	0xbd072d87	-0.033002403
1	0xbe891bee	-0.2677912
2	0xbd31f143	-0.043442976
3	0xbf069e97	-0.5258574
4	0x3e1436bf	0.14474009
5	0x3e5a34c3	0.2130919
6	0xbe236174	-0.15955144
7	0xbf1ce5da	-0.61288226
8	0xbd273357	-0.040820446
9	0xbddddc09	-0.10832984
10	0xbd11d5d7	-0.035604324
11	0xbed1cd10	-0.40976763
12	0x3e08e011	0.13366725
13	0xbea7d3f9	-0.3277891
14	0xbee9229a	-0.4553421
15	0x3d50d676	0.050985776
16	0x3dafa41b	0.085762225
17	0x3ed99a3b	0.4250048
18	0x3e132323	0.14368872
19	0xbead2060	-0.33813763
20	0x3e3110d0	0.1729157
21	0x3fcecf34	1.6156983
22	0x3ce75df2	0.028243039
23	0xbf0a66d2	-0.5406314
24	0x3f19aefb	0.60032624
25	0xbed1ec12	-0.4100042
26	0xbe323617	-0.17403446
27	0x3e51abc6	0.20475683
28	0xbe8246fb	-0.2544478
29	0x3c179057	0.009250722
30	0xbd3feb46	-0.046855234
31	0x3fb6ce13	1.4281639
32	0x3c97c2a5	0.018525431
33	0xbfa06b34	-1.2532716
34	0x3f0a4e30	0.54025555
35	0xbdc42f18	-0.09579295
36	0xbc374946	-0.011186903
37	0xbeb9c33d	-0.36281767
38	0xbdabbacf	-0.0838524
39	0xbbba8b27	-0.005692858
40	0xbd8200e2	-0.06347825
41	0x3fcc51ff	1.5962523
42	0x3d89948a	0.06717785
43	0xbdce69ca	-0.100787714
44	0xbf66da0c	-0.90176463
45	0xbd4935f1	-0.04912371
46	0xbc5884f2	-0.01321529
47	0x3f6da0db	0.9282357
48	0x3bf382bb	0.007431356
49	0xbcc605e7	-0.024172736
50	0xbc351beb	-0.011054019
51	0x3d4a07e5	0.049323935
52	0xbe2a3687	-0.16622363
53	0xbf3ce5e5	-0.7378829
54	0xbf1e0dd8	-0.61739874
55	0x3ea6e39e	0.32595533
56	0x37868b31	1.603886e-05
57	0x3e36d767	0.17855607
58	0x3d0170b1	0.03160161
59	0x3df8e2d1	0.12152637
60	0x3c76493a	0.015032107
61	0xbf1af23b	-0.60525864
62	0xbd9cd079	-0.076569505
63	0xbf3e23e5	-0.7427352
64	0xbeeb9ec1	-0.46019557
65	0x3cfe0627	0.031008793
66	0xbe1ae67e	-0.15126988
67	0x3e7d7ff7	0.24755846
68	0x3db7ffaf	0.08984315
69	0x3d403108	0.04692176
70	0x3b520f78	0.0032052677
71	0x3d92f83b	0.071762525
72	0x3defa475	0.117012896
73	0x3e83f11b	0.25769886
74	0xbe32fbcf	-0.1747887
75	0xbf6821c7	-0.9067654
76	0xbd36858b	-0.04456095
77	0x3f02b3c2	0.5105554
78	0xbd50756d	-0.050893236
79	0x3d825f60	0.063658476
80	0xbd3d9012	-0.046279974
81	0x3ef708a4	0.4824878
82	0x3d1e8910	0.03870493
83	0x3f012a8d	0.5045555
84	0xbf382170	-0.7192602
85	0x3ead3361	0.33828261
86	0x3c583fd7	0.013198814
87	0xbfa6cb3a	-1.303077
88	0xbc983dd8	-0.018584177
89	0x3d9df5d6	0.07712905
90	0x3d6b37f6	0.057426415
91	0x3f03d7ba	0.5150105
92	0x3ca30b4d	0.01990285
93	0xbea0964e	-0.31364673
94	0xbf439b8a	-0.7640921
95	0x3dc118ec	0.094285816
96	0x3d0fa76c	0.035071775
97	0x3fbe2dfb	1.4857782
98	0x3d6a479c	0.0571972
99	0x3ce2030c	0.027589343
100	0xbc948f13	-0.01813463
101	0xbf0ce65e	-0.5503901
102	0x3d90f4d3	0.070779465
103	0xbef4c341	-0.47805217
104	0x3ee48445	0.44632164
105	0x3dd7315d	0.10507462
106	0xbb07aa7d	-0.0020700984
107	0xbfc1f0f0	-1.5151653
108	0xbd2072e2	-0.03917206
109	0xbd2ed0e7	-0.042679694
110	0x3cb46de3	0.022025054
111	0x3f2710c9	0.6525999
112	0xbd27c46a	-0.0409588
113	0x3fcce858	1.6008406
114	0xbf8f59b5	-1.1199251
115	0xbe9a540c	-0.30142248
116	0xbcb34e74	-0.021887995
117	0xbe6b0f1a	-0.2295498
118	0xbdd83767	-0.10557442
119	0x3d51d9e9	0.051233206
120	0x3ed221c6	0.41041392
121	0xbdb42370	-0.08795822
122	0xbdd86c6a	-0.10567553
123	0x3ebaee8e	0.36510128
124	0xbdcf46a9	-0.10120899
125	0xbe38c716	-0.18044695
126	0x3d032e14	0.032026365
127	0xbef5ae16	-0.4798438
128	0x3e833476	0.25625962
129	0xbe5b2276	-0.21399865
130	0x3ae0a060	0.0017137639
131	0x3f97d0ec	1.1860633
132	0x3c63c2af	0.013901397
133	0xbfc3a7e7	-1.5285615
134	0xbf11b8cb	-0.56922597
135	0x3cef6e7d	0.02922749
136	0x3c0bd47c	0.008534547
137	0x3e9b800e	0.30371135
138	0xbd2dd627	-0.04244056
139	0x3b9c06a5	0.0047615343
140	0xbd089ce4	-0.033352748
141	0x3ee629ed	0.44953862
142	0x3ccb8001	0.02484131
143	0x3e74bf43	0.23901086
144	0xbfb4fb54	-1.4139199
145	0x3d79ef12	0.06101901
146	0x3c6004e6	0.013673043
147	0x3fa2e431	1.2725888
148	0x3d50b670	0.050955236
149	0x3cc49f7c	0.02400183
150	0x3d9d8e22	0.07693125
151	0x3ee43ae4	0.4457618
152	0x3e4c8daa	0.19975916
153	0xbf59d527	-0.8509087
154	0x3f6929d0	0.91079426
155	0xbf24acfb	-0.6432645
156	0xbbcdc2a5	-0.006279307
157	0xbe9b0359	-0.30275992
158	0x3d2971f8	0.041368455
159	0x3c9f4dde	0.01944631
160	0x3da14317	0.078741245
161	0x3e2307c2	0.15920928
162	0x3da75fb5	0.081725515
163	0x3fbc1e8e	1.4696825
164	0xbf205d3d	-0.6264227
165	0x3f2f0841	0.6837197
166	0xbdcb587d	-0.09928987
167	0xbe62819b	-0.22119753
168	0xbe1b813d	-0.15186019
169	0xbc8a12dc	-0.016854696
170	0xbd5bf280	-0.053698063
171	0xbe38d9c0	-0.18051815
172	0x3d953b1d	0.072866656
173	0x3c3ec35c	0.011643257
174	0x3f1338fc	0.57508826
175	0x3f1927f3	0.5982658
176	0xbd8a07a9	-0.06739742
177	0x3d77edca	0.060529508
178	0xbdcfecef	-0.10152613
179	0x3d522267	0.05130234
180	0x3d8e57ca	0.06950338
181	0xbed79dc4	-0.42112553
182	0xbdf7387a	-0.12071319
183	0x3ff2481b	1.8928255
184	0x3f00e681	0.5035172
185	0xbe6ae6f6	-0.22939667
186	0x3cd6673e	0.026172277
187	0xbf02ab02	-0.5104219
188	0xbd5ae24c	-0.05343847
189	0xbb5a93ea	-0.0033352324
190	0x3d144e11	0.036207262
191	0xbc1b458a	-0.009477029
192	0x3d46d7c8	0.04854563
193	0x3df723e2	0.12067391
194	0x3f896560	1.0734062
195	0x3f411f28	0.75438166
196	0xbc6adf7d	-0.01433551
197	0xbe84be30	-0.25926352
198	0xbcec2ca2	-0.028829876
199	0xbd62e41c	-0.055393323
200	0x3db56bc3	0.088584445
201	0xbf161209	-0.5862127
202	0x3ca28746	0.019839894
203	0xbf3a4a92	-0.72770035
204	0xbe4dd7fd	-0.20101924
205	0xbe149342	-0.145093
206	0xbd015658	-0.031576484
207	0xbe70122f	-0.23444436
208	0xbd41a036	-0.04727193
209	0xbcd4e832	-0.025989626
210	0xbb59db51	-0.0033242295
211	0x3f03bca9	0.5145975
212	0xbbc9a31e	-0.0061534783
213	0xbcbc36f8	-0.02297543
214	0x3fe1cd5f	1.7640799
215	0xbebf7adf	-0.3739843
216	0x3c3e1163	0.011600825
217	0xbfa511c5	-1.2896048
218	0xbd38fc60	-0.04516256
219	0xbac38bab	-0.0014918944
220	0xbd269c28	-0.040676266
221	0x3de7b8f4	0.11314574
222	0x3cacaf70	0.021079749
223	0x3f964dec	1.174253
224	0xbe8b3a83	-0.27193078
225	0xbf5f82fa	-0.8730923
226	0x3db2404a	0.087036684
227	0x3f0d5423	0.5520651
228	0x3d5be2ae	0.053682975
229	0xbdb877aa	-0.09007199
230	0xbc46f118	-0.012142442
231	0x3de2117c	0.11038491
232	0x3d6b197c	0.05739735
233	0x3f0fcb24	0.56169343
234	0x3fe605c2	1.7970507
235	0xbec571bf	-0.38563344
236	0x3ca5776a	0.020198543
237	0xbf2f96bd	-0.68589383
238	0xbdbfcdb5	-0.093654074
239	0x3df1d302	0.11807825
240	0x39ac7c35	0.00032898938
241	0xbf0099cf	-0.50234693
242	0xbe031aec	-0.12803239
243	0x3f088493	0.5332729
244	0x3f61de84	0.88230157
245	0xbf157545	-0.58382064
246	0x3c9cc000	0.019134521
247	0xbc2ec77c	-0.010667678
248	0x3e94a1fa	0.29029828
249	0x3e98ea73	0.2986637
250	0xbc8a854f	-0.01690927
251	0xbe92069b	-0.28520665
252	0x3d77d313	0.06050403
253	0xbf0707fe	-0.5274657
254	0xbd397ebb	-0.045286875
255	0xbf863a8a	-1.0486615

classifier.0.bias f4 [128]
0	0xbe257d01	-0.16160966
1	0xbcc5e64f	-0.024157671
2	0x3c83fb59	0.016111063
3	0xbec85a62	-0.39131457
4	0xbeb9e877	-0.3631017
5	0x3f5246d0	0.821393
6	0x3f226183	0.6343004
7	0x3e342623	0.17592673
8	0xbe83ee8d	-0.25767937
9	0x3ec926f6	0.39287537
10	0x3f12c12d	0.5732601
11	0xbea1122a	-0.3145917
12	0xbeaf2f65	-0.34215847
13	0xbcaf7175	-0.021416405
14	0x3e166626	0.14687404
15	0x3d069720	0.032858968
16	0xbea74ea2	-0.3267718
17	0x3f5bd8bc	0.85877585
18	0xbf4de338	-0.80424833
19	0xbf8b3a0a	-1.0877087
20	0x3f93a10c	1.1533523
21	0xbfd921d7	-1.6963452
22	0xbec246e8	-0.37944722
23	0xbf4a6239	-0.79056126
24	0xbebc3ab9	-0.36763552
25	0xbf58b4d6	-0.84650934
26	0x3f4dbe9d	0.8036898
27	0xbee84a17	-0.45369026
28	0xbe277241	-0.16352178
29	0x3e83db0c	0.25753057
30	0x3eba68d8	0.36408114
31	0x3e191417	0.1494907
32	0x3edad5bf	0.427412
33	0x3db1b54c	0.08677158
34	0x3ed0e7ef	0.4080195
35	0x3e94405e	0.28955358
36	0xbe63b5a4	-0.22237259
37	0x3f826790	1.0187855
38	0xbf6914f6	-0.9104761
39	0xbe466f2d	-0.19378348
40	0x3e7fc1d4	0.24976283
41	0xbebdbe48	-0.37059236
42	0x3f3e0046	0.7421917
43	0x3ee5d5a8	0.4488957
44	0x3e797a42	0.24363044
45	0x3f2c1ab5	0.6722825
46	0x3f9ff995	1.2498041
47	0x3e5383d8	0.20655763
48	0xbe699e88	-0.22814381
49	0xbf73c0c9	-0.9521604
50	0x3e2da2e0	0.16956663
51	0x3eff893c	0.4990939
52	0xbd127caf	-0.03576344
53	0x3ea49fba	0.32153112
54	0xbf3afabc	-0.7303884
55	0x3f48247e	0.7818068
56	0xbeb5143d	-0.35367003
57	0x3ee38253	0.44435367
58	0xbed85d10	-0.422585
59	0xbf92ada3	-1.145924
60	0xbeda4b97	-0.42635795
61	0x3eb8689c	0.3601731
62	0x3f406868	0.7515931
63	0xbf8203ff	-1.015747
64	0x3f76baab	0.9637858
65	0x3f1e5adb	0.61857384
66	0xbf2dc675	-0.67880946
67	0x3f0efd5f	0.55855364
68	0x3f4cdd26	0.80024946
69	0xbe51d012	-0.20489529
70	0xbe403c15	-0.1877292
71	0xbcb2cd47	-0.0218264
72	0x3ec8e412	0.39236504
73	0x3ea50177	0.3222768
74	0xbe3ff54f	-0.18745922
75	0x3efbe460	0.49197674
76	0xbf894ac2	-1.0725939
77	0xbdcc019a	-0.09961243
78	0x3f35b24c	0.70975184
79	0xbf087396	-0.5330137
80	0x3f2a8a18	0.66616964
81	0xbf5ef599	-0.870935
82	0x3f1ac5a1	0.6045781
83	0x3f4a8344	0.79106545
84	0x3eeacf39	0.45861223
85	0xbda31ed1	-0.07964862
86	0xbe57c52a	-0.21071306
87	0xbf6fc294	-0.9365628
88	0xbd31304d	-0.043258954
89	0x3db94a71	0.09047402
90	0x3d44de43	0.048063528
91	0x3d807688	0.06272608
92	0xbf090809	-0.53527886
93	0xbe95559f	-0.29166886
94	0x3eb6f766	0.35735625
95	0xbefb06ac	-0.49028528
96	0x3cde9292	0.0271695
97	0xbfb114b3	-1.3834442
98	0xbcdf922e	-0.027291384
99	0xbf530788	-0.82433367
100	0xbdbcdfd2	-0.09222378
101	0x3dadde06	0.08489613
102	0xbf1d38e1	-0.61414915
103	0xbe8af9ca	-0.271437
104	0xbf0761d2	-0.52883637
105	0x3e035d47	0.12828551
106	0x3f068beb	0.5255725
107	0xbeb64949	-0.35602787
108	0x3f337404	0.700989
109	0xbe242703	-0.16030507
110	0x3f1984fd	0.5996855
111	0x3dd5cc67	0.10439377
112	0xbf5c16c2	-0.85972226
113	0xbe4c77e2	-0.19967607
114	0xbe3c6e62	-0.18401483
115	0xbe97a357	-0.29616806
116	0x3e0dc8b9	0.13846101
117	0xbd9889f8	-0.074481905
118	0x3f3a71f9	0.7283016
119	0xbe6a12f8	-0.22858799
120	0xbe044cd2	-0.1291993
121	0x3db0d9f1	0.08635319
122	0xbec52dd8	-0.38511539
123	0x3e482bf7	0.19548021
124	0x3e9c4498	0.30521083
125	0xbef7a97e	-0.483715
126	0x3e93bbbd	0.2885417
127	0x3e28551d	0.16438718

classifier.2.weight f4 [10, 128]
0	0x3dc73cb0	0.09728372
1	0x3e637c0e	0.22215292
2	0xbc5e43b3	-0.013565945
3	0xbf94bd77	-1.162032
4	0x3e8bf5ab	0.27335867
5	0xbeedd63e	-0.46452516
6	0x3e372284	0.1788426
7	0xbdfa2958	-0.12214917
8	0xbe30975d	-0.1724524
9	0xbfaf2465	-1.3682982
10	0x3e22288f	0.15835784
11	0xbf867d07	-1.0506905
12	0xbea7fc93	-0.32809886
13	0x3f454df6	0.77072084
14	0x3f6e90af	0.9318952
15	0x3d75643c	0.059910044
16	0xbd4c63a6	-0.04989972
17	0x3e6a1a9c	0.22861713
18	0x3f153ebf	0.5829887
19	0xbf68c890	-0.90931034
20	0x3e5f55ce	0.21810076
21	0xc02220e4	-2.5332575
22	0xbdd61ccd	-0.10454712
23	0xbe321e37	-0.17394339
24	0x3c277959	0.010221803
25	0x3e1f15cb	0.15535657
26	0x3e70dd04	0.23521811
27	0xbf7e65dd	-0.9937418
28	0xbe1489b8	-0.1450566
29	0x3efb94b3	0.49136886
30	0xbef82ab8	-0.48470092
31	0xbf4d13a8	-0.8010812
32	0x3e683a7d	0.22678562
33	0x3ee80349	0.45315006
34	0xbe934564	-0.28763878
35	0xbdc38cb5	-0.09548322
36	0xbee4e69b	-0.44707188
37	0xbe7c834a	-0.24659458
38	0x3ea77488	0.32706094
39	0x3d990574	0.07471743
40	0x3db167ee	0.08662401
41	0xbf224186	-0.6338123
42	0x3c46bc10	0.0121297985
43	0x3f05f604	0.52328515
44	0x3eb4ea43	0.35334978
45	0x3e17fe9b	0.14843218
46	0x3e935237	0.28773662
47	0x3e7da8dd	0.24771447
48	0xbeea224e	-0.45729297
49	0xbe1f99ca	-0.1558601
50	0x3d36084b	0.044441503
51	0xbf894a6b	-1.0725836
52	0x3dc806b6	0.09766905
53	0xbf6736db	-0.9031808
54	0x3e7ff172	0.24994448
55	0x3ab360a1	0.0013685414
56	0x3ecb7da7	0.39744303
57	0xbe333b1e	-0.1750302
58	0xbe8479c2	-0.25874144
59	0xbdf80510	-0.121103406
60	0xbf7ef3c0	-0.99590683
61	0xbe83704a	-0.25671607
62	0xbe320802	-0.17385867
63	0x3f9127bf	1.1340255
64	0x3e528069	0.20556797
65	0xbe31da9a	-0.17368546
66	0xbf00d0b0	-0.5031843
67	0x3d8581fe	0.06518935
68	0x3e0da490	0.13832307
69	0xbef86694	-0.4851576
70	0x3ec46d1f	0.38364503
71	0xbed504ba	-0.4160517
72	0x3df0e439	0.1176228
73	0x3e8b8600	0.2725067
74	0xbe2abef1	-0.16674401
75	0xbea17323	-0.31533155
76	0xbf001e48	-0.50046206
77	0xbd733b1d	-0.059382547
78	0x3e824690	0.2544446
79	0xbf230220	-0.6367512
80	0xbe66fab5	-0.22556575
81	0xbf52eb9e	-0.82390773
82	0xbd65d817	-0.056114282
83	0xbf057730	-0.5213499
84	0x3e929f6a	0.28637248
85	0xbe436a80	-0.19083595
86	0x3cc36dd9	0.02385609
87	0xbd40b39f	-0.0470463
88	0xbf86dfaa	-1.0537007
89	0xbc70b211	-0.014690892
90	0x3e20a070	0.15686202
91	0xbf968ec9	-1.1762325
92	0x3e6d5112	0.23175457
93	0x3f3f92a1	0.7483311
94	0x3e25f6c4	0.16207415
95	0xbe2bee0c	-0.16790026
96	0x3e6023f5	0.21888717
97	0xbff87b33	-1.9412597
98	0x3eae00d4	0.33985007
99	0xbe013ee3	-0.12621646
100	0xbeb5c364	-0.35500634
101	0x3d717c4a	0.058956422
102	0x3e67b627	0.2262808
103	0x3ea1a689	0.3157237
104	0xbecced0f	-0.4002461
105	0x3b5e925e	0.0033961753
106	0xbccfd904	-0.025372036
107	0xbf02160c	-0.5081489
108	0x3e8032d2	0.25038773
109	0x3edcb950	0.43110132
110	0x3e383c06	0.17991647
111	0x3e7e4894	0.24832374
112	0x3f3d02b9	0.7383228
113	0x3e73d408	0.23811352
114	0x3e52ed2b	0.20598285
115	0x3f3b7759	0.73228985
116	0x3d974962	0.073870435
117	0xbe05228f	-0.13001464
118	0x3dd2fb62	0.10301854
119	0x3ebad9b4	0.3649422
120	0xbec5d68a	-0.38640243
121	0xbe36a28a	-0.17835441
122	0x3ecf2826	0.40460318
123	0x3eb6bf37	0.3569276
124	0x3d644bf2	0.05573649
125	0x3ee317ee	0.44354194
126	0x3d9f1d25	0.07769231
127	0xbe76f0f7	-0.24115358
128	0xbe33d3ac	-0.17561215
129	0xbdb41a81	-0.08794118
130	0xbecfb146	-0.40564936
131	0xbdca5bc2	-0.09880783
132	0x3efd4c7a	0.4947241
133	0x3e9fc23a	0.3120287
134	0xbe840b8d	-0.25790063
135	0xbe494aef	-0.19657491
136	0xbf915c37	-1.1356267
137	0xbf27dea9	-0.6557413
138	0x3f1a38b3	0.60242766
139	0xbf23d2a3	-0.6399328
140	0xbd6254c3	-0.055256616
141	0x3f97b675	1.1852556
142	0xc03eac79	-2.979277
143	0xbe3b7d76	-0.18309578
144	0xbdc72d2a	-0.09725411
145	0xbd835561	-0.06412769
146	0xbf84f001	-1.0385743
147	0x3f71a045	0.94385177
148	0xbdc88f31	-0.097929366
149	0x402055f0	2.5052452
150	0xbedcb497	-0.4310653
151	0x3f1442c9	0.57914406
152	0x3e5b600c	0.21423358
153	0xbe831006	-0.25598162
154	0x3e29f8f1	0.1659887
155	0x3ea32419	0.31863478
156	0x3e0fd35c	0.14045471
157	0xbf472a69	-0.7779909
158	0xbd6fe5e2	-0.058568843
159	0xbfd5a330	-1.6690426
160	0x3ee39145	0.4444677
161	0xbefa4faa	-0.48888904
162	0xbf0a1f06	-0.5395359
163	0xbeb71ba9	-0.3576329
164	0x3f3044b8	0.68854856
165	0xbfa8ff78	-1.3202963
166	0xbf1b9be0	-0.6078472
167	0xbd9bba68	-0.076039135
168	0xbeba97b7	-0.36443874
169	0xc01f6a0c	-2.4908476
170	0xbddd6cbd	-0.10811756
171	0x3f522b04	0.82096887
172	0xbdbfff67	-0.09374886
173	0xbced52c9	-0.02897014
174	0xbe2b3834	-0.16720659
175	0xbdab8ee8	-0.083768666
176	0xbe85ae5e	-0.26109594
177	0x3f539aba	0.8265797
178	0x3e9e5607	0.3092501
179	0xbe127fb0	-0.14306521
180	0xbdfebe44	-0.12438634
181	0xbf20dbd4	-0.6283543
182	0x3cd722d2	0.02626172
183	0xbda151d7	-0.07876938
184	0xbf3a2668	-0.72714853
185	0x3e8b4dcd	0.27207795
186	0xbdb6d3c9	-0.089271136
187	0x3f2f0e6c	0.6838138
188	0x3fa430cf	1.2827395
189	0xbe521d97	-0.205191
190	0x3e8cb300	0.27480316
191	0xbf5618d3	-0.8363163
192	0x3dd378b1	0.103257544
193	0xbdcb8e18	-0.099392116
194	0x3ebed927	0.3727505
195	0x3dfd35f1	0.12363804
196	0x3e0ae77a	0.13564864
197	0xbe98dd25	-0.2985622
198	0x3d9f1541	0.07767726
199	0x3e582421	0.21107532
200	0x3e99dcd3	0.30051288
201	0xbe9df579	-0.30851343
202	0xbf61965d	-0.8812006
203	0x3e761f88	0.24035466
204	0xbe5cb3b2	-0.21552923
205	0x3e82de98	0.2556045
206	0x3f601ce8	0.8754411
207	0xbf352af9	-0.70768696
208	0xbe875cad	-0.26437894
209	0x3ed13bab	0.40865836
210	0xbd3a29f5	-0.04545017
211	0x3fbee7b2	1.4914458
212	0xbe881f77	-0.26586506
213	0xc012c422	-2.293221
214	0xbe8c8ab2	-0.27449566
215	0x3f3f0441	0.74615866
216	0x3fcdb763	1.607159
217	0x3ea9b180	0.33143234
218	0x3e136cbc	0.14396948
219	0x3e075ba3	0.1321855
220	0xbf448964	-0.7677214
221	0xbe7f60e8	-0.2493931
222	0xbecf9620	-0.40544224
223	0xbf0b92af	-0.54520696
224	0xbea63b2d	-0.32467023
225	0x3f095383	0.53643054
226	0xbe051f22	-0.13000157
227	0xbf794921	-0.9737721
228	0x3f12e808	0.573853
229	0x3f3c6c9b	0.7360322
230	0x3fad4fdb	1.3539995
231	0x3e7de7cb	0.24795453
232	0x3e1bcf9a	0.15215912
233	0xbe73013c	-0.2373094
234	0xbd80b5bd	-0.06284664
235	0xbd9def5f	-0.07711672
236	0x3d6b5d79	0.05746219
237	0xbf0b132c	-0.5432613
238	0x3e2a09cf	0.16605304
239	0x3c0c72cf	0.008572294
240	0x3ce538ac	0.027981125
241	0xbf3d08a5	-0.73841316
242	0x3e414bc8	0.18876565
243	0x3f68229e	0.9067782
244	0xbf04cf9c	-0.51879287
245	0x3e9206ab	0.28520712
246	0x3dee708c	0.1164256
247	0xbf76b756	-0.963735
248	0x3e51361b	0.20430796
249	0xbe547a0b	-0.2074968
250	0xbc4d988c	-0.012548577
251	0x3eb5f92c	0.35541666
252	0xbe67efb4	-0.22650033
253	0xbe95d3ee	-0.29263252
254	0x3e3093a8	0.17243826
255	0xbe6d6a88	-0.2318517

classifier.2.bias f4 [10]
0	0x3dca2319	0.098699756
1	0xbc5d0d4f	-0.013491943
2	0x3d97dda2	0.0741532
3	0x3d077c6a	0.033077635
4	0x3a97971a	0.0011565418
5	0x3e40fb18	0.18845785
6	0x3d466a9b	0.04844151
7	0xbdffafb6	-0.12484686
8	0xbeaea4c7	-0.3411009
9	0xbf038156	-0.51369226
